code/model/model.pth (torch, 16787 bytes, 4 tensors)

linear1.weight f4 [256, 11]
00000000: 62aa 8cbe b292 ab3e 1b2f 023e 9ae3 983e
00000010: 8b10 5cbe 2d94 30bd 516b 353e 1612 b43e
00000020: 321d 24be 485f 9f3d 2e92 9abc ab29 843a
00000030: 42a7 b43e 3e78 e83d bf4a ff3d b02c b5bd
00000040: 3102 4e3e 9224 803d 7c14 6d3d 1c90 013e
00000050: 97d8 b63d 55dd 413d 357d b13d ddb7 013e
00000060: b790 9dbe f985 213e 8ca6 29be 656a 0c3e
00000070: e685 0a3d 13c8 963d 30e6 ccbd fd71 163e
00000080: e960 a93d aded 11be 2e1c 47be d366 263d
00000090: 9972 3abd 6318 d63e 4aee 4dbe 830c b23e
000000a0: 056e d6bd 825a 013c f353 f7bd fde6 aebe
000000b0: b8cb 383e 21fc d2bd 10f7 95be 2614 943d
000000c0: 2992 4ebe 16eb e13d 2e27 efbd d505 87be
000000d0: 55e5 24be 9ab0 94bd 03cb 273e cd36 c3bd
000000e0: e288 1fbe 3f18 0cbe 3fce d1bd 65e1 3abe
000000f0: 54b6 e0bd af52 6dbd e938 8fbe db34 f53d
00000100: 9c18 633d d19b 033e e967 b83d 0176 903e
00000110: c857 333d 5369 4f3e f6ec c13d b486 b3bd
00000120: 2bf2 833d fc29 36be 5a60 65be 8f71 aa3e
00000130: 2852 613e 4463 183e eb73 963e 2871 1abe
00000140: 4b08 873e 8741 333e 2d13 febc e172 b03d
00000150: d771 ef3d 0ec6 f4bd cce9 b93d b8f9 8d3b
00000160: 3b43 5a3e 703c 3c3d 7549 b73e 8986 83be
00000170: 941a 593c 690c 97be 3516 9c3e 2489 56be
00000180: d6fd 8abd cf89 84bb 4886 d8bc 5ad1 823d
00000190: a632 87be 0dfa e8bb ef25 7e3e 5130 5ebe
000001a0: 665f 9e3e ecfb 8f3e a51a 9f3e 1006 043d
000001b0: 4e48 cdbd 0386 aa3e 43a8 9ebe 9028 2dbd
000001c0: fcd5 92bd b5f2 09bd 8102 273d 1e5f b3bd
000001d0: 6be1 993d fb32 3f3e b244 89be f037 193e
000001e0: e841 89be c885 93be d97b 9e3e c908 aabe
000001f0: cbc4 523e 9d03 0bbe d8ec 8abe 8d2d ae3d
00000200: 3346 073e 39b7 fc3d b416 0fbe 05db 993e
00000210: 1fc9 8d3e 08f0 633e 9471 1d3e 9664 6d3b
00000220: 14e6 6abe 12d0 55be 60b7 21be a737 73be
00000230: 3621 833d 8851 44be cf1f 8b3e c182 edbc
00000240: 1e3e fd3c 3d98 6c3e 13b1 94be 1af0 c63c
00000250: 1b6f a1be b4aa 713e bfa2 2dbd 56d6 8dbe
00000260: b943 7fbc 49df 36bd 541d b03e ce32 babe
00000270: fd8f 93bc b51b 803e d1cf 393e a916 0b3e
00000280: 0c67 b23d 2d98 803e c4bb d4bd 63f5 6b3e
00000290: 59b6 c1bc be2a 4a3e dabf 443c 4fde 5b3e
000002a0: 8106 2abd 810b 1d3e f68c 393d da66 04be
000002b0: 7e89 00be 6730 303d b51a 873c 4d11 8f3d
000002c0: 3747 5cbe 2887 b03e f3a1 083e fa4c 363e
000002d0: 3433 25bd 9026 bc3d 6220 5ebe b087 563e
000002e0: 6165 91bd 2d9f 2cbd 9453 4f3c 1203 c93e
000002f0: 64ac 5c3e fe59 ad3e 89d7 37be d612 6a3d
00000300: a06a 0c3e f6b3 2f3e 3ea5 bc3d 213f 973e
00000310: a0a2 5fbe db50 9d3d 4360 383e c58f 863e
00000320: 40cd 5ebe eea2 b4be dd06 f73d 1164 0e3e
00000330: 43d2 07bd f739 293e 97bf 1abe d4e9 5b3d
00000340: 2bec b4be 07a7 2f3e 77b3 38be 0b61 a63d
00000350: ffce 443e 4a40 84bd 3821 933d f69b 103e
00000360: 8473 ce3d 0144 9f3c a6a4 893b 1eb3 153e
00000370: 785b 66be 2c34 46be 8472 94bd 38d1 1abe
00000380: da9d 213d 1b73 083e 2a46 e8bc a4b9 a7be
00000390: b2da 8b3e c02c 873e 9ecb a1bd c696 f83c
000003a0: de96 e6bb 47ef ad3d 7793 6abe c069 3ebd
000003b0: 3000 74be ca22 b43e 0a9a 163d 129f 15bc
000003c0: ce8a b23e c7a6 143e 3a14 173d 60fa 903e
000003d0: 4ac2 78be 218d 1cbe 1e79 0d3e a19e 413e
000003e0: b325 5e3e 898c 383e f091 7fbe 6f1a f53d
000003f0: aece dd3d 1696 2fbe 4e1d 9a3e c124 8ebe
-0.27473742 0.33510357 0.12713282 0.29861146 -0.21490686 -0.04311006 0.17716719 0.35170048
-0.16026762 0.07781845 -0.018868532 0.0010083219 0.35283858 0.113510594 0.124654286 -0.08846414
0.20118023 0.06256975 0.057880864 0.1265263 0.0892803 0.04733022 0.086664595 0.12667795
-0.3077447 0.15773763 -0.16567439 0.13712461 0.0338191 0.0736238 -0.10004842 0.1469192
0.08270437 -0.14250822 -0.19444343 0.040625405 -0.045519445 0.4181548 -0.20110431 0.3477517
-0.10470203 0.007895114 -0.12076559 -0.34160605 0.18046463 -0.10301996 -0.29290056 0.072304055
-0.20172943 0.11031167 -0.11677395 -0.26371637 -0.16103108 -0.072602466 0.16386037 -0.09531937
-0.1557956 -0.13681124 -0.102444164 -0.18250044 -0.10972276 -0.05794018 -0.27973107 0.11972972
0.05544339 0.12852408 0.09004194 0.2821503 0.043784887 0.20255022 0.09469025 -0.08765927
0.06442674 -0.17789453 -0.22400036 0.33289763 0.22003996 0.14881617 0.29385313 -0.15082228
0.26373515 0.17505465 -0.031015003 0.086156614 0.11691635 -0.119518384 0.09077796 0.0043327473
0.21314709 0.045956075 0.3579823 -0.2568858 0.013250966 -0.29501656 0.30485693 -0.20950752
-0.067866966 -0.0040447484 -0.026431218 0.06387587 -0.2640583 -0.0071098865 0.24819158 -0.21698119
0.30932158 0.2812189 0.31075016 0.032232344 -0.10023557 0.33305368 -0.30987749 -0.04227501
-0.071697205 -0.03367873 0.040773872 -0.087583765 0.07513698 0.18671791 -0.26810223 0.14962745
-0.26808095 -0.28813004 0.30953863 -0.33209828 0.20582883 -0.13575597 -0.27133822 0.08504782
0.13210373 0.123396344 -0.13973504 0.3004991 0.27692506 0.22259533 0.15375358 0.0036223284
-0.2293933 -0.20880154 -0.15792608 -0.23751698 0.06402819 -0.19171727 0.27172706 -0.028993012
0.030913409 0.2310495 -0.29041347 0.024284411 -0.3153008 0.23600274 -0.042391535 -0.27702588
-0.015580111 -0.044646535 0.34397376 -0.36366886 -0.018012995 0.2502114 0.18145682 0.13582863
0.08711061 0.251161 -0.10387376 0.23042826 -0.02364652 0.19742867 0.012008632 0.21471523
-0.04151011 0.1533642 0.045300446 -0.1292986 -0.12552449 0.04301491 0.016492227 0.06985722
-0.21511541 0.34478116 0.13343029 0.17802802 -0.040332034 0.09187043 -0.2169204 0.20950198
-0.070994146 -0.04214399 0.012654204 0.39260155 0.21550137 0.3385772 -0.17953314 0.05714687
0.13712549 0.17158493 0.09211205 0.2954035 -0.2183938 0.076814376 0.18005471 0.26281562
-0.21757984 -0.35280555 0.12061856 0.1390536 -0.033159506 0.16526018 -0.15112148 0.053689793
-0.35336432 0.1715356 -0.1803721 0.08123978 0.19219588 -0.06457575 0.0718407 0.14121994
0.100806266 0.019441606 0.004200536 0.14619109 -0.2249583 -0.1935584 -0.072484046 -0.15118873
0.03945718 0.13325159 -0.02835377 -0.3275882 0.2731529 0.2640133 -0.07900165 0.030345332
-0.0070370277 0.08492904 -0.22907816 -0.04648757 -0.23828197 0.35182792 0.036767997 -0.009132164
0.34871525 0.14516746 0.036884524 0.2831602 -0.24292865 -0.15288211 0.13815734 0.18908168
0.21694069 0.1802236 -0.24958014 0.119679324 0.10830437 -0.17147097 0.30100483 -0.27762416

linear1.bias f4 [256]
00000000: 6aec 22be 0324 b03d 983c 0cbe 1fd8 a13c
00000010: cf8a 8cbd f0b4 3b3e 636a 313e cdcf cabd
00000020: 06cc f5bd 3bd3 473e c950 5dbe 1af3 913d
00000030: a9d2 533e b7ea 893e bfb2 cb3d 6275 0ebc
00000040: 938b 08be 524a bb3d 5703 0f3e 93cc 85be
00000050: c887 2cbd e002 16be d7ba 263e 32ca c13d
00000060: b52d b63c 139e 1cbd fef7 e1bd 0dff 493e
00000070: da1d 8e3e d92f 4bbe ab76 92be b14a 01be
00000080: 8a26 29be a33a 75be ff65 6d3e 7d5a 1b3d
00000090: 1b17 1abe 91c9 19bd 3342 9d3e 092e c4bd
000000a0: 43c9 a43e 9650 95be 4a39 a23e 6ee4 94be
000000b0: 915c 883e cae2 b83d 428f 803e 0716 07be
000000c0: f80d 97be a920 9f3d 47af 39be eb84 03be
000000d0: 3867 1b3e 8999 2fbd a8a0 143d 6fdc 3fbd
000000e0: deef 1fbe b80b 80be d6b4 ec3d a09a 753e
000000f0: f48f 683e a4a1 4b3e 2b0a 9d3e f840 6c3e
00000100: 5604 e1b9 2b0f 4bbd 5250 8c3e 1ea9 8a3d
00000110: 6ebf 8ebe c6ac 073d 90a6 9c3e cfd8 ee3d
00000120: 6bd2 8e3e 1b30 af3e fd6d 19be 8fc9 583e
00000130: cf3e 41be 61c7 87be ad0e be3e 7993 b63c
00000140: a2eb ad3e aca5 633e 0cde ee3d e0df 2ebe
00000150: 0873 103d dac2 5dbd c1d9 90be 82ae 36be
00000160: efb4 a63e a7c5 6c3e c023 6bbe da5d a33d
00000170: 780d 1f3e 38ed 6a3e 7c3e 4bbe a89f 443e
00000180: 9709 91bd 14b6 893e 97aa c0bd 829f 513e
00000190: 2b45 a93c 7061 02be b8e6 29be cb55 523e
000001a0: 9d2a 9d3e e790 edbd 6f41 60be de50 d5bd
000001b0: 6149 0fbd d875 0d3d ab04 a33e e58f aebe
000001c0: 564b bf3d f8e2 2dbe 4abc ffbd c30b 01be
000001d0: b02f 213e 8730 4b3d fc0b 30be 0e8f 093e
000001e0: 2b4c aa3e a7b7 eebc 84d3 30bb 7455 2f3d
000001f0: ee09 1dbe 785f acbc a9de a7bd 967c 0b3e
00000200: e5ec cf3d 716e 22be 7c90 6abe 802d 963e
00000210: 5327 753c ac97 293d 3225 bdbd 7d7d 213e
00000220: b0af c5bc a391 8cbe d866 d13d 7098 5bbe
00000230: b6ae ab3c 4895 2ebe de93 983e e787 98be
00000240: cb74 d93d 0bc9 9a3e 54c6 3f3e 3462 c9bd
00000250: 2a7d 9abc 2f8d 2abe cb96 553e ba53 56bd
00000260: c080 40be 0f58 353e 2301 efbc d910 98be
00000270: 5777 0cbe ea7b 343e d78f 303e fc99 bf3d
00000280: f02c 383e 699a a7be 407d 98bd 083c 993e
00000290: decd e5bd 9ee4 ea3c 30ca e3bc a8ba d73e
000002a0: c232 63bd a8d8 f1bd d333 593e b107 b1bc
000002b0: bb6e 7d3d 8a86 73be cb90 5f3e 2bae d33d
000002c0: 76fd 7e3d 08ed 44bd 7054 c93d 6ad7 63be
000002d0: 4171 1d3e 3363 4f3d cd90 733e 092f 4c3e
000002e0: b00e 8d3e 1961 a83d 6834 06bd bf29 19be
000002f0: 90fe 7bbe f8f5 813e 6c11 713d 36eb a23e
00000300: 7092 96bd d7ba a8bd dbe0 8bbe 440a 2f3e
00000310: 2378 99bc e94b ef3c 8033 a9be 98b1 c53e
00000320: c3a7 b1bd 819f 023e 6bb4 043d 1546 42bd
00000330: 0520 1bbe c992 57be 3c5c a9be ca26 4d3d
00000340: 815e 98be 02ca b1bd a75f d8bd 21ad 703e
00000350: cc14 7b3d 94a1 42bc eeb3 a9bd 77dc 91be
00000360: a5c4 273e 8e15 d63b 3fa0 553e a5cd c6bd
00000370: 5e19 403d 53d4 593d 94ac 7d3e 1898 123d
00000380: a711 cabd ac63 cb3e 526c 85be 7c1a 88be
00000390: a976 0a3e 3566 8e3e 5cc8 1abe c69c cf3d
000003a0: 95cf 06be a2dd 883d 20b7 5ebd be14 83be
000003b0: 164f 6b3e 27c4 dfbd 83ec 423e de59 3ebe
000003c0: a0c2 5f3e 2e4e fbbc 2db3 9ebe 7872 6bbe
000003d0: 8015 d53d 27c2 433e fde3 81be 8f24 c83c
000003e0: f8eb 6b3e 94cf f23d 9ae3 9abd 9d5e 66be
000003f0: a9bc 84be 7fe1 8b3e 11ee 37be 7b61 a33e
-0.15910497 0.08600619 -0.1369499 0.019756375 -0.06862413 0.18330741 0.1732574 -0.09902916
-0.12001805 0.19514172 -0.21612848 0.07126446 0.20685829 0.26936886 0.099462025 -0.008694978
-0.13334493 0.09145035 0.13966118 -0.2613264 -0.04212168 -0.14649534 0.16282211 0.09462394
0.022238592 -0.03823669 -0.11033629 0.197262 0.2775715 -0.19842471 -0.2860616 -0.12626149
-0.16518608 -0.2394815 0.2318344 0.037928093 -0.15047877 -0.037545744 0.30714568 -0.09579093
0.321848 -0.29163045 0.31684333 -0.29080528 0.26633123 0.090276316 0.25109297 -0.13191997
-0.29502845 0.07769901 -0.18133269 -0.12843673 0.15176094 -0.042871032 0.036286026 -0.04684108
-0.15618846 -0.2500894 0.11557929 0.23984766 0.22711164 0.1988588 0.3067182 0.23071659
-0.00042918575 -0.049575012 0.2740503 0.06770538 -0.27880424 0.033123754 0.30595827 0.11662447
0.2789491 0.3421639 -0.14983363 0.21170639 -0.18871616 -0.26519302 0.37120572 0.022287117
0.33968836 0.22231168 0.11663446 -0.17077589 0.035265952 -0.054140903 -0.28291133 -0.17840007
0.32559916 0.23122273 -0.22962856 0.07976885 0.15532482 0.22942054 -0.19848055 0.19201529
-0.07081907 0.26896727 -0.094075374 0.20471004 0.020662865 -0.12732482 -0.16591918 0.2054054
0.30696574 -0.115999036 -0.21899961 -0.10415815 -0.03498209 0.034536213 0.318395 -0.34094158
0.09340541 -0.16981113 -0.12487085 -0.12602143 0.15740848 0.049606826 -0.17192072 0.13433477
0.33261237 -0.029140307 -0.0026981542 0.042806104 -0.15335819 -0.021041617 -0.08196766 0.13621745
0.10152606 -0.15862443 -0.22906679 0.2933159 0.014962989 0.04140441 -0.0923561 0.15770526
-0.024131626 -0.27454862 0.10224694 -0.21444869 0.020957332 -0.17049134 0.29800314 -0.29791185
0.106179796 0.3023151 0.18728 -0.09833184 -0.018858511 -0.1665542 0.20858304 -0.05232594
-0.18799114 0.17709373 -0.029175347 -0.29700354 -0.137174 0.17625394 0.1724237 0.09355542
0.17985892 -0.32734993 -0.074457645 0.29928613 -0.11220907 0.028673466 -0.027806371 0.42134595
-0.05546833 -0.11808902 0.21211176 -0.021610113 0.06187318 -0.23781791 0.21832578 0.10335954
0.062253438 -0.048077613 0.09830558 -0.22250143 0.15375234 0.050631713 0.23785706 0.19939817
0.27550268 0.08221645 -0.032764822 -0.14957331 -0.24608827 0.25382972 0.058854505 0.31820077
-0.073521495 -0.08238762 -0.2731999 0.1709376 -0.018734043 0.029211001 -0.33047104 0.38612056
-0.08674576 0.12756158 0.032398622 -0.047430117 -0.15148933 -0.21052088 -0.33078182 0.05008582
-0.297596 -0.08681108 -0.10565119 0.23503543 0.06129913 -0.011879344 -0.08286272 -0.28488514
0.16383608 0.0065333312 0.2086191 -0.09707192 0.046899192 0.053181004 0.24772865 0.03578958
-0.09866648 0.3972448 -0.26059204 -0.26582706 0.13521828 0.27812353 -0.15115494 0.10137324
-0.13165124 0.06682898 -0.05437386 -0.25601763 0.22979388 -0.10926085 0.19035535 -0.18588969
0.21851587 -0.030676927 -0.30996075 -0.22992885 0.104044914 0.19117032 -0.25369254 0.024431495
0.23039234 0.11855999 -0.07562943 -0.2249703 -0.25925186 0.27320477 -0.17961909 0.3191031

linear2.weight f4 [3, 256]
00000000: a996 ba3d 32af d0bc 873d d7bc 1b88 a23d
00000010: ca14 e5bd eca4 04bd 236d 11be e46e 52bc
00000020: c108 053d 6e2a dfbd 62a8 1f3d 02a8 653d
00000030: 1dc6 dabd 309f a0bc d5ae d9bd e64f 00be
00000040: 8c96 063e d08f f2bd 9e5e f9bc 1d2b f7bc
00000050: 588d b0bd 33d7 39bd 1afa 2cbd 78c8 09bd
00000060: 7069 bbbc 94f3 abbd e7ff 1f3d 14ae 29bd
00000070: afe8 7e3d e642 52bc 10c9 31bc 0ea8 a93d
00000080: 25e8 513d 2a46 093d 4c9b a3bd 9349 69bd
00000090: 6298 90bc 5077 a03c ba06 cebc f3ff a3bd
000000a0: 8cc5 5bbd 7ec8 743c a6cf 73bd 60a2 8fbd
000000b0: bca2 02be 54ef 2bbd e6bb 193c 6930 c0bd
000000c0: feba 5fbd d5b6 2ebd 6b3e aa3d a1b4 82bd
000000d0: 3812 1dbd 47e6 04bd 2084 043d 6e5b 9abc
000000e0: 5189 95bd a362 61bd 6dcf 0dbe e995 603d
000000f0: 3e0b 50bc db5f 143c 4596 efbd 176a 62bc
00000100: fb3f 97bd 872d f1bb 9c50 adbd 156d e7bb
00000110: 410f cbbd 9aa2 09bd 76f0 22bd eb34 cd3d
00000120: 980a 5d3d 4b7d 68bd 9c5c d53d 39c0 09be
00000130: 4940 89bc cd6b 64bc 383d d6bd f7c3 d43b
00000140: 5b64 c5bd f708 10bd badb 41bd a9bf 89bd
00000150: 4169 19be ff2a 80bd 7caa 953c 7209 11be
00000160: 3a9f 9bbd 1158 6dbc 63ff 4abd 41ce 113d
00000170: 6bbd 02bd a28b 06be 6167 f2ba 5f1a a2bd
00000180: 0bba a1bd 68e3 e53d 6048 d93d cd7f 6dbc
00000190: 21de a7bd 5e0c 3e3d f660 25bd e1ab 57bc
000001a0: a53f fcbd d009 1dbe 17bf ff3d 18f3 44bd
000001b0: 8ae6 a0bd 1f49 68bc 5736 c4bd 7b4e d0bc
000001c0: 9d2a 6dbd 4e29 5e3b 06cd bf3b 91fa 85bd
000001d0: 780c 0f3c 486e 41bd a694 5f3e c205 823d
000001e0: dc32 ab3d 7bda 00be 2c2f cdbd 5192 92ba
000001f0: 58c0 4e3c f91b 80bc 6ba3 bebd 3665 9cbc
00000200: a744 a83b 5826 fdba 8125 38bd fde6 543c
00000210: 207f 18be 896c 973c 7057 51bd ed37 cebd
00000220: 3a65 cfbc 02dd fc3c 9294 213c d232 45bd
00000230: 36a1 b6bd b032 163c 7241 1bbd 08cd 2d3d
00000240: 3be6 c93c 1375 753c 1a62 9dbc f6f4 933c
00000250: 9984 073d 924d 133d f878 f9bd 94d4 723c
00000260: 0a0f e63c 62e4 e1bc ae22 c2ba 1707 a9bc
00000270: 8278 1bbc 6fb2 00be 44e5 1bbd 22d8 f9bc
00000280: 49ba 00bd d646 fabb ceb8 07be 68d7 d3bd
00000290: a836 713c 0b7f 133d a6bd e6bd 6711 90bd
000002a0: beff 97bd 26c9 37bc 6c9b bebc d2df 29ba
000002b0: c77d ab3c 4c25 48bd 2fd3 fdbd 76e4 f2bd
000002c0: f463 223e 9313 843d 62cb bf3d 33f2 b8ba
000002d0: f096 8bbd 8a0d 973d 7832 2fbd fcf6 f03c
000002e0: 9f09 f9bd 8ae5 e6bd b4ae 2cbe 7003 c6bd
000002f0: 958d afbd d061 30bc 3ba1 ce3d a4b5 2cbd
00000300: f2c5 eabd a953 4e3d 0257 4cbd 73a1 67bd
00000310: a4de fabd 31bb 40be 17fc 03bd 962b d4bd
00000320: 73f8 b2ba b1c8 68bc 6f27 bdbd cb6c 62bc
00000330: 67f1 1d3d 0a3c c0bd 4df1 0a3c d867 fa3c
00000340: fcac cf3b b43d a63c f51c 813d 1389 1b3d
00000350: 8368 063e 03f9 583c 0849 32bb 049e 77ba
00000360: b9f4 8bbc 9eba 043d f1cd 543d a6fb 563e
00000370: a0cf b4bd 40a3 35be b584 7b3d 4286 173d
00000380: 4350 8a3c 5b25 0abe 0b03 e63d 3097 9fbb
00000390: b98a 0dbc 300b f3bd 8096 423c 8175 c5bd
000003a0: f57a 63bc 47bf 3dbd 50b3 85bd 839c 33bd
000003b0: 61a9 4fbd 364a 2bbb e87a d7bc 7cfd ccbd
000003c0: 677d afbd 97d7 c4bd 4dfc 333d 5b33 45bd
000003d0: 5598 64bd 8ead c2bd c3fc 4a3d d1f3 34bd
000003e0: 3d04 d83c 0ca1 b8bb c7d1 0b3d 6b80 08bd
000003f0: f82c 17bc 5d72 9d3a 5600 5dbd 8e6c debd
0.091107674 -0.025474165 -0.026274456 0.07936116 -0.11185606 -0.032383844 -0.14201789 -0.012843821
0.03247905 -0.10896765 0.03897894 0.056068428 -0.10682318 -0.019607157 -0.1062905 -0.12530479
0.13143367 -0.11843836 -0.030440625 -0.030171925 -0.08620709 -0.045371246 -0.042230703 -0.033638448
-0.022877425 -0.08396068 0.039062407 -0.04142578 0.062233623 -0.012833333 -0.01085116 0.08284007
0.05124678 0.03351418 -0.07988605 -0.05695493 -0.017650787 0.019588143 -0.025149692 -0.08007803
-0.053655192 0.014940379 -0.0595242 -0.070133924 -0.1275739 -0.041976288 0.009383177 -0.093842335
-0.05462169 -0.04265483 0.083126865 -0.063821085 -0.038347453 -0.032446172 0.032352567 -0.018842425
-0.07301582 -0.055025708 -0.13848658 0.054830465 -0.012697993 0.009056057 -0.116985835 -0.013819239
-0.0738525 -0.0073601636 -0.08462641 -0.007062564 -0.09915019 -0.033602335 -0.039780103 0.10019859
0.05396518 -0.056760114 0.104180545 -0.13452233 -0.016754286 -0.013941717 -0.10460895 0.0064930874
-0.09638282 -0.0351648 -0.04732869 -0.067260094 -0.14981557 -0.06258201 0.01826977 -0.1416376
-0.075987294 -0.014486329 -0.049559962 0.03559709 -0.031918924 -0.13139203 -0.0018493944 -0.07915186
-0.07896813 0.11225015 0.106095076 -0.014495802 -0.081966646 0.046398513 -0.040375672 -0.013163538
-0.12316827 -0.15335774 0.12487619 -0.048083395 -0.07856472 -0.01417759 -0.09580677 -0.025428047
-0.057901967 0.0033899131 0.005853298 -0.065419324 0.008731 -0.047224313 0.21834049 0.063487545
0.0835931 -0.12583344 -0.10018763 -0.0011182522 0.0126191005 -0.015638338 -0.09308513 -0.01909123
0.005135137 -0.0019313795 -0.04495764 0.012994525 -0.14892244 0.01848437 -0.051108778 -0.10069261
-0.025316823 0.030867103 0.009862082 -0.04814417 -0.08917467 0.009167358 -0.03790421 0.04243186
0.024645915 0.014981526 -0.019211818 0.018061142 0.03308544 0.03596265 -0.12181276 0.01482119
0.028083343 -0.027574722 -0.0014811361 -0.020633264 -0.0094891805 -0.12568067 -0.03806044 -0.030498568
-0.031427655 -0.007637839 -0.13254091 -0.1034382 0.014722504 0.03600983 -0.11266641 -0.07034569
-0.07421826 -0.011217391 -0.02326747 -0.000648019 0.020933999 -0.048863694 -0.12393796 -0.11859982
0.15858442 0.06449046 0.09364964 -0.0014110267 -0.068158984 0.07375629 -0.04277274 0.029414646
-0.12160038 -0.1127425 -0.16863519 -0.096686244 -0.085719265 -0.010765508 0.10089346 -0.042165413
-0.11463536 0.050372753 -0.049887665 -0.056550454 -0.122494966 -0.18821408 -0.032222833 -0.10359876
-0.0013654366 -0.014208005 -0.09236037 -0.013819884 0.038560297 -0.093864515 0.008480382 0.030567095
0.00633776 0.020293094 0.06304351 0.03797252 0.13125806 0.013242963 -0.0027204175 -0.00094458484
-0.017084466 0.032404535 0.051954214 0.20994434 -0.08828664 -0.17738056 0.061405856 0.036993273
0.016883975 -0.13490812 0.11231049 -0.004870318 -0.008639031 -0.11867368 0.011876702 -0.09641553
-0.013884296 -0.046324994 -0.06528342 -0.043850433 -0.05069864 -0.0026136762 -0.026303723 -0.10009286
-0.085688405 -0.09611433 0.043941785 -0.04814468 -0.055809338 -0.09505759 0.04955746 -0.044177834
0.026369208 -0.0056344327 0.034135606 -0.033325594 -0.00922703 0.0012012232 -0.0539554 -0.10860549

linear2.bias f4 [3]
00000000: 957f 8bbd c69f 1fbd 5282 04be
-0.06811444 -0.03897073 -0.12940338
