code/model/model.pth (torch, 16787 bytes, 4 tensors)

linear1.weight f4 [256, 11]
000000 2f a9 23 3e 84 9e 0c 3c 76 e1 1c be 51 b6 a0 3d
       0.15982507 0.008582715 -0.15320382 0.07847274
000010 d1 f9 bf 3d 1b 73 95 be d4 6e 81 be d6 b0 24 bd
       0.093738206 -0.2918938 -0.25279868 -0.040207706
000020 b5 a5 d6 bc e4 b5 1e 3d 53 8b 7c be 66 19 94 be
       -0.026202062 0.038747683 -0.24662523 -0.28925627
000030 31 af 93 be 53 9e 5a be 1b f2 27 3d a8 82 9b 3d
       -0.28844598 -0.21349458 0.041002374 0.0759328
000040 49 de e7 bc e8 22 7f be 5b da 45 3e f5 b6 7b 3e
       -0.028304236 -0.2491566 0.19321577 0.24581511
000050 a1 79 48 3e 8f 96 99 bb 67 41 f1 3d b0 ca 9a 3c
       0.19577648 -0.0046871374 0.11780053 0.018895477
000060 6c d5 ea bd 4b ba ab bd 0b 43 d5 3c 7c e1 26 be
       -0.11466488 -0.08385142 0.026032945 -0.16296953
000070 07 1b 41 be 5b 92 81 3d 6f cb 51 3e e4 26 8e 3e
       -0.18857966 0.06326743 0.2048776 0.27764046
000080 1c 76 4b be 17 3f 8e 3e 0b cf 92 3b a0 05 67 bc
       -0.19869274 0.2778251 0.004480248 -0.014100462
000090 ec f9 91 be 96 5a 41 3e ae 30 96 be 3a 3d 72 3e
       -0.28510988 0.18882212 -0.29334015 0.23656169
0000a0 eb 98 c9 bd f0 12 b9 bd b1 85 db 3d 7a 2c 8f 3e
       -0.0984362 -0.09036815 0.10718859 0.2796362
0000b0 a2 29 01 3e 07 a6 79 be 42 b7 79 be d9 b7 fb bd
       0.12613538 -0.2437974 -0.24386314 -0.122909255
0000c0 8d 7e ab 3d c8 97 84 3e 85 10 57 be ad 26 8f 3e
       0.08373747 0.2589705 -0.21002395 0.27959195
0000d0 51 88 98 3c 42 86 0b 3e 6e 27 e7 3d c8 43 94 3d
       0.018619688 0.13625434 0.112868175 0.07239491
0000e0 60 d6 0a bd 74 04 71 bd 00 ae b8 bb 59 6d 98 be
       -0.03389585 -0.058842137 -0.005635977 -0.29770926
0000f0 00 f0 78 3c 2e f7 13 be f2 ec 6f be aa f9 71 be
       0.015193939 -0.1444976 -0.23430231 -0.23630396
000100 a8 72 50 be dc 1e db 3d de 8b 91 be 50 84 00 3e
       -0.20356238 0.10699245 -0.28427023 0.12550473
000110 38 a1 42 be 20 ef ba bd e0 7b 71 3c 48 a3 77 3d
       -0.19006813 -0.09127641 0.014739007 0.06045845
000120 61 8e 8e be 95 8e 33 be de fa c4 bd 77 fa 53 be
       -0.27843 -0.1753486 -0.096181616 -0.20701014
000130 f8 14 44 bd 6b 0b 8c be f0 e3 53 be e5 d1 bb bd
       -0.04787156 -0.2735246 -0.2069242 -0.091708936
000140 d3 d5 43 3e 01 4e ef 3d 4a 95 32 be 41 eb f4 bd
       0.19124536 0.116848 -0.17439762 -0.119589336
000150 34 1c 02 3d c6 bd ef 3d f5 1c 6b 3d 42 43 c0 bd
       0.031765178 0.11706118 0.057400662 -0.093878284
000160 d1 bf cc bd c0 f1 9a 3b b4 bf fc 3d 5b c5 61 be
       -0.099975236 0.004728526 0.12341252 -0.22047941
000170 34 e1 24 be de 76 00 3e 96 ca 85 be fd 9a 0a be
       -0.16101533 0.12545344 -0.26131123 -0.13535686
000180 e6 1c 61 be a6 a8 5f bd 92 b2 04 be 57 74 81 3d
       -0.2198368 -0.054604195 -0.12958744 0.06321018
000190 ac 59 b8 bd 14 e0 8d 3e 65 bb 99 3d 58 00 48 be
       -0.090014786 0.2771002 0.07506446 -0.19531381
0001a0 f7 12 4b 3e 76 a8 78 be 54 b5 24 be 98 af 13 3e
       0.19831453 -0.24283013 -0.16084796 0.14422452
0001b0 10 cb 2f bd 26 c2 8a be 26 b1 40 3d 5c 94 99 3c
       -0.042918265 -0.27101249 0.047043942 0.018747501
0001c0 c3 32 26 bd 08 28 12 3e 72 82 1f 3e 2f ce 97 3d
       -0.040575754 0.14273083 0.15577105 0.07412373
0001d0 b5 4b 5e 3e aa 52 21 3e 30 ec 3c 3e a8 c1 c1 3d
       0.21708567 0.1575419 0.18449473 0.09460765
0001e0 46 55 f5 3d f1 cd 26 be 47 c5 70 be 58 9a 92 be
       0.11979155 -0.16289498 -0.23512755 -0.2863338
0001f0 18 59 6e be 35 95 8f 3e 50 f4 b2 bd 94 2e 32 be
       -0.23276174 0.28043523 -0.08738005 -0.1740058
000200 0e 19 c4 3b 13 64 88 be 19 2b 33 3e 21 06 ab 3c
       0.005984432 -0.2663885 0.17496909 0.020876946
000210 d7 61 ce 3b d0 a9 f0 bc ae ea 00 3d 37 9a f0 bd
       0.0062982845 -0.029377848 0.031473808 -0.11748164
000220 62 11 2f be 2f 81 27 3d 85 fb b6 bc a0 e3 f2 bd
       -0.17096475 0.040894683 -0.02233673 -0.11859822
000230 b1 49 e2 3d 46 5b 57 3e 31 a2 1a be 24 89 8d 3e
       0.11049212 0.21030912 -0.15100934 0.27643692
000240 a2 50 17 3e d6 42 e6 3c 72 77 af 3d da 05 12 3e
       0.14776853 0.028108042 0.08567704 0.14260045
000250 7c fa 89 3e 36 3a 89 be c4 ba fc 3d 42 c3 75 be
       0.26948917 -0.26802224 0.1234031 -0.24000266
000260 f3 a8 a8 bd 69 8b 99 bd 51 46 e5 3d 7d d5 75 3e
       -0.082353495 -0.074972935 0.111950524 0.2400722
000270 67 70 64 3e 76 3e 93 bd d4 bd fe 3d 9e af 7e 3e
       0.22308503 -0.07189648 0.124385506 0.2487168
000280 ac 9b 87 3e 3e 7e 80 be c6 65 98 bd 30 bc 90 be
       0.26485956 -0.25096315 -0.07441287 -0.28268576
000290 50 5a 6b be 21 86 8c 3e 2a e4 b6 bd 99 0a 08 be
       -0.2298367 0.27446082 -0.089302376 -0.13285293
0002a0 e1 5e c3 3d 64 ff 73 be 7c 6b 8b 3d 7b 14 62 3e
       0.09539581 -0.23827893 0.068076104 0.22078125
0002b0 fe a5 06 3e 10 84 82 be 2a f5 4b 3e 84 04 d8 bd
       0.13149258 -0.2549138 0.19917741 -0.10547736
0002c0 23 13 c9 bd 8e 12 79 be 00 93 e5 3b 27 1e a0 bc
       -0.09818103 -0.24323484 0.007006049 -0.019545628
0002d0 65 dd 3a be 12 5b c2 3c 10 a3 1d 3e 06 d0 21 3e
       -0.18248518 0.023725066 0.15394235 0.15802011
0002e0 b3 7f 86 bd 75 3f 99 be a1 d3 fb 3d e9 30 94 3e
       -0.065673254 -0.29931226 0.122962244 0.28943565
0002f0 21 3f 96 bc 23 87 e8 bc 16 a2 8f be 5b 6a a0 3e
       -0.01834065 -0.02838475 -0.2805335 0.31331143
000300 d2 ca 87 3e 84 73 83 3e 21 6f 54 3e 66 44 5b 3e
       0.26521927 0.2567407 0.20745517 0.2141281
000310 32 c5 1c 3e c5 42 35 bd bb 36 ef 3d e0 9f 26 be
       0.15309599 -0.04425313 0.11680361 -0.16271925
000320 b4 9e 9c 3d f9 58 af bd ba a4 74 3e a6 cc f4 3c
       0.07647458 -0.08561892 0.23890963 0.02988274
000330 ee 62 a2 be fe ed ac 3d 91 81 18 3d c8 e7 4a be
       -0.31716102 0.08443831 0.03723294 -0.1981498
000340 09 10 e1 3b d5 e5 0e 3e 1f df 88 bd 90 42 d8 3c
       0.0068683666 0.13954861 -0.06683182 0.026398927
000350 77 57 0a be fa 2f fe 3d 52 79 27 3e 54 ae 32 3d
       -0.13509928 0.124114946 0.16354874 0.043623284
000360 2e 4c 41 3e 9a 20 d1 bd 65 67 4e bd a8 cb 81 be
       0.18876716 -0.102112964 -0.050391573 -0.2535069
000370 48 69 ed bb d9 7c 8b 3d a0 00 92 bc 3e 6f 7e 3e
       -0.0072452165 0.06810922 -0.017822564 0.24847123
000380 e5 3e 7d be e9 7e 48 bc 48 04 8b be 7b 5b 9e bd
       -0.24731024 -0.012237289 -0.27151704 -0.07732292
000390 16 04 04 3e 15 a7 f7 3d 86 ab 3e 3e 01 be db 3d
       0.12892184 0.12092415 0.18620118 0.107296
0003a0 90 1d 38 3d f1 9f 90 3e 8d 31 2c be 04 50 8e be
       0.044950068 0.28247026 -0.16815777 -0.27795422
0003b0 34 ed 16 3e 43 07 7c be 86 1a 53 be 66 68 58 3e
       0.14738923 -0.24612145 -0.20615587 0.21133575
0003c0 69 13 01 be b0 7e a3 bb 49 69 89 be c5 0f 7a 3c
       -0.1260506 -0.0049894676 -0.2683814 0.015262549
0003d0 28 b9 49 be a5 a1 03 3e 40 d3 3a 3e 83 a4 27 be
       -0.19699538 0.12854631 0.18244648 -0.1637135
0003e0 ce 5c ca 3d 44 73 41 3e c7 e0 d7 3d 6f 9d 74 be
       0.09880982 0.18891627 0.1054092 -0.23888181
0003f0 1c 0f c3 3d 0e 9f 88 be f5 bd 23 be be 9c 7d bd
       0.09524366 -0.2668385 -0.15990432 -0.06191706

linear1.bias f4 [256]
000000 8e 1a ac 3c f1 70 49 3e 30 8d 2f 3e 30 14 1d 3e
       0.021008756 0.1967199 0.17143703 0.15339732
000010 45 ef 32 3e e3 38 96 be f1 40 24 be 0e e9 2e 3e
       0.17474087 -0.29340276 -0.16040398 0.17081091
000020 bb 73 86 3e 8e b9 46 3e 2d 9b 7c be be 42 67 be
       0.2626017 0.19406721 -0.2466857 -0.22584054
000030 d9 2d 2d 3e cc ca 84 3e 7a cc 87 3e 92 d6 81 be
       0.1691202 0.25935972 0.2652319 -0.25359017
000040 c2 d7 a0 bd da 9a 16 3a 0e 95 86 3e 10 09 a6 bd
       -0.078536525 0.00057451206 0.26285595 -0.08107197
000050 05 c1 8b be 6e d9 06 3e f1 cd 64 3e b2 61 35 3e
       -0.272957 0.1316888 0.22344185 0.17713049
000060 b3 fc f5 bd 56 c7 b0 bc 49 69 9f be b2 5f 60 3e
       -0.12011089 -0.021579426 -0.31135014 0.21911505
000070 d3 49 9b bd c8 4c 8f 3e a8 3d 00 be f5 4b a4 3e
       -0.0758244 0.27988267 -0.1252352 0.320892
000080 8e 0e ad 3c 1a 4b 32 3e 90 c7 30 3e 65 66 f4 3d
       0.021125104 0.17411461 0.17263627 0.11933593
000090 96 fa 0f be 5c 46 79 bd c0 28 3d 3e 22 97 5f bd
       -0.14060435 -0.060858116 0.18472576 -0.05458749
0000a0 1d 7d 8d 3e 46 80 88 3d 74 59 9a 3c 49 6f 67 bc
       0.27634516 0.06665091 0.018841483 -0.014125654
0000b0 3a 58 dc bd 77 b7 d6 bd f6 b5 88 be 58 55 3a 3e
       -0.107590154 -0.10484212 -0.26701325 0.18196619
0000c0 ba 26 3a 3c f8 fc 90 bd 37 2f 98 be 10 4b 2d 3e
       0.011361772 -0.070795 -0.29723522 0.16923165
0000d0 95 81 69 3e 26 85 6e 3d 5c d0 2c bc d3 27 96 bd
       0.22803338 0.05823245 -0.010547724 -0.073318146
0000e0 aa d7 06 3d 9f d9 43 bd aa 69 8d be 3d 0b 94 be
       0.032920517 -0.04781496 -0.27619678 -0.28914824
0000f0 95 2b d9 3d 19 83 b8 ba 12 cf 65 3e 72 b6 5b 3d
       0.10604016 -0.0014077156 0.22442272 0.05364079
000100 07 8a b3 bd 1e b5 0f be 62 29 8f bd 58 e2 4e be
       -0.08766561 -0.14033934 -0.06990315 -0.20203531
000110 a2 87 05 be b2 31 f5 bd 38 b6 85 be da 7c 4c 3e
       -0.13040021 -0.11972369 -0.26115584 0.19969502
000120 93 ef 47 3d 6e e0 48 3e de dd 8a 3d ce 2e 12 3e
       0.04881246 0.19616863 0.06780599 0.14275667
000130 a2 3f 7d be 6e 82 32 be ec d0 f0 bd 0d 27 98 be
       -0.24731305 -0.17432567 -0.11758599 -0.29717293
000140 dd 14 c2 3d 98 79 08 3e 6f a8 4a 3e e6 0e 96 3e
       0.094766356 0.13327634 0.19790815 0.29308242
000150 a6 1f 02 3e 1a e9 59 be 6b ed 64 be c2 33 ef 3d
       0.12707385 -0.21280327 -0.22356193 0.11679794
000160 f9 99 51 3d 53 fd a3 bd 2c ed 9a 3e 10 38 11 bd
       0.05117223 -0.08007302 0.30259073 -0.035453856
000170 04 fb fc bd df 6a 83 bc 8b 99 2b 3e 34 cf 5d bd
       -0.12352565 -0.016042171 0.1675779 -0.054152682
000180 09 1c 59 3e b7 10 47 bd b6 04 de bd 68 39 8c 3e
       0.21202101 -0.048599925 -0.10840742 0.27387547
000190 ae 18 90 be 4a 28 ef bd f8 a4 d6 3d 30 4b af bd
       -0.2814383 -0.116776064 0.10480684 -0.08559263
0001a0 8f c5 b7 bd c5 13 05 be fd 19 a7 bb a1 61 82 be
       -0.08973228 -0.12995823 -0.0050995336 -0.2546511
0001b0 34 93 2d be f4 0e 1c be b4 00 49 be 40 e6 01 3d
       -0.16950685 -0.15240079 -0.19629174 0.031713724
0001c0 3e 12 66 3b 8c 5c 67 bd c8 c9 2f be 47 d6 2a 3d
       0.0035106088 -0.056484744 -0.17166817 0.041708257
0001d0 c3 d0 6f be 76 9f f7 bc c9 64 2d 3e 93 e6 78 be
       -0.2341948 -0.030227404 0.16932978 -0.24306707
0001e0 3b 4a ef bd 03 69 67 3e 6d 53 6e 3e 0b 98 88 bd
       -0.1168408 0.22598653 0.23274012 -0.06669625
0001f0 df cb f4 3c bc 7c 35 be 47 33 54 3e 47 10 fe 3d
       0.02988237 -0.17723364 0.20722686 0.124054484
000200 c0 a5 47 3e a6 67 19 be 83 14 96 be ab 0a 2a 3e
       0.19496822 -0.14980945 -0.29312524 0.16605632
000210 6f fe 6f bd 59 08 90 3d b3 52 97 be f2 5e 8a 3c
       -0.058592256 0.07032842 -0.29555282 0.016890977
000220 5c 5a d6 3d 2e da 83 3e 63 e4 32 3e e4 c1 18 3d
       0.104664534 0.25752395 0.17469935 0.037294284
000230 a7 b6 70 be 7d 6c f2 bd d5 47 29 be c0 dc ad bc
       -0.23507176 -0.11837099 -0.16531308 -0.021223426
000240 71 34 eb 3d 97 08 35 3e 98 e6 a2 bb a4 3b 06 3e
       0.11484612 0.17679058 -0.0049713366 0.13108689
000250 99 9e 75 3c 0a f4 83 3e 0b 55 3b be 94 ce 71 be
       0.014991426 0.25772125 -0.1829416 -0.2361396
000260 76 c2 95 be ff 85 7e 3c e5 4d a4 3d 54 25 13 be
       -0.29249924 0.015534877 0.0802267 -0.14369708
000270 7b 29 43 3d 52 e9 82 3b 8f 50 39 3e 26 74 21 be
       0.04764698 0.003995099 0.18097137 -0.15766963
000280 9c 6f 88 be 1c f6 9a 3d 6e 01 89 be 48 3d 42 bd
       -0.2664765 0.07566473 -0.26758903 -0.047421724
000290 5c e7 f4 bd 1d 81 9d be 1e 29 63 be 27 ac 35 3d
       -0.11958191 -0.30762568 -0.22183654 0.04435363
0002a0 e7 b9 17 be f0 51 94 3e ae 56 ff bd be 77 71 bd
       -0.1481701 0.28968763 -0.12467705 -0.058952086
0002b0 d2 ee 8a 3d db 65 46 bd 97 81 11 be d0 e5 00 be
       0.067838326 -0.04843698 -0.14209591 -0.12587667
0002c0 8c f0 51 be 70 d2 06 3e a1 68 82 be 2d 5a c2 bd
       -0.20501918 0.13166213 -0.2547045 -0.09489856
0002d0 24 2c f9 3d aa 1d 2f be 15 68 25 3e b0 8c a2 3c
       0.12166622 -0.1710116 0.16152985 0.019842476
0002e0 be 23 af bc c4 c6 7e bc 1a c1 81 3e 5a d4 03 3e
       -0.021379348 -0.015550319 0.25342637 0.12873974
0002f0 fd 7d 94 3d 31 36 e6 bc 40 97 25 3e e2 e2 08 be
       0.07250593 -0.028102012 0.16170979 -0.13367799
000300 62 2d a5 bd db e9 5b be b5 ea e7 bd 5f 7e 71 be
       -0.08065297 -0.21475928 -0.11324064 -0.23583363
000310 ed 3c c4 bd fd 75 36 bd f9 84 0d be ea 3e 34 3e
       -0.09581933 -0.044546116 -0.13820256 0.17602125
000320 2b a1 3c 3e be 69 96 3e 2e 84 97 3e 1f cc 1b 3e
       0.18420856 0.2937755 0.29593033 0.15214585
000330 0e 93 ea 3c fc 09 fc bd 57 01 73 3e 8c 40 59 3e
       0.028634574 -0.12306592 0.2373098 0.21216029
000340 c0 dd 99 3e 71 ea 46 be 93 00 09 bd 27 fe 39 bd
       0.30051994 -0.1942537 -0.033447813 -0.045408394
000350 a9 20 20 be c6 7a 90 be 49 ad 86 3d e1 45 88 be
       -0.15637459 -0.2821867 0.0657602 -0.26615813
000360 bc 54 20 3e fb 5d dc 3d 41 6c 8e 3e 32 5f 60 be
       0.15657324 0.10760113 0.27816966 -0.21911314
000370 eb cc 6d be fd e9 09 3c dc 56 01 bd 93 d1 47 be
       -0.23222701 0.008417604 -0.031576976 -0.1951354
000380 c5 5a 8b be bd 60 c1 3d 9b a2 5c be 12 08 90 3e
       -0.2721769 0.094422795 -0.21546404 0.28131157
000390 ab 83 90 be 5f 11 d2 3d ac a1 92 3e 1e c4 7b 3e
       -0.28225455 0.102572195 0.2863897 0.24586532
0003a0 71 7c 71 3d 8f e8 ae bd e7 ef f6 bc ad d5 32 3e
       0.058956567 -0.08540451 -0.030143691 0.17464323
0003b0 e1 80 15 be e4 36 79 3e 6e 38 85 be ab 76 6b bd
       -0.14599945 0.24337345 -0.26019615 -0.057486217
0003c0 ee 49 19 be 61 ab be bd 6c fb 91 3d d2 40 4c 3d
       -0.14969608 -0.09310032 0.07128033 0.049866505
0003d0 f8 5f 76 be 2f 54 02 bd f9 b0 77 be e6 65 99 be
       -0.24060047 -0.031818565 -0.24188603 -0.29960555
0003e0 ec 64 8e 3e fc ca 6d 3d 49 24 8e be 66 f8 c9 3d
       0.27811372 0.05805491 -0.27762058 0.09861831
0003f0 e9 45 66 3e d0 f4 44 be 52 bd 90 be 8f e9 c4 3d
       0.22487606 -0.19234014 -0.2826944 0.0961486

linear2.weight f4 [3, 256]
000000 5f af 34 3c dc 90 11 bc 37 2b 90 bd d8 ad 8a bd
       0.01102814 -0.008884635 -0.070394926 -0.06771439
000010 e5 ba b7 bc 58 04 28 3c 50 8b 23 bc a8 d5 c8 bc
       -0.022427985 0.010254942 -0.009981945 -0.024515942
000020 21 4a 2c bd 64 d6 08 3c c7 95 b5 3c 97 42 86 bc
       -0.042062882 0.008351896 0.022166146 -0.016389174
000030 74 f5 51 bd d3 9d 16 bc 68 59 54 bd 78 29 a1 bd
       -0.051259473 -0.009192902 -0.051843077 -0.07869238
000040 6a 0b 6f 3d 6a be 4a bd 6a 04 6c bd 05 10 fa bc
       0.058360495 -0.049498 -0.057621397 -0.030525217
000050 4f 6d 02 bd 9c c6 7d bc 70 aa 3a b9 d2 9c 5e 3b
       -0.031842526 -0.015489247 -0.00017801835 0.0033967984
000060 d7 ca a7 3c b1 78 27 bd 72 45 1d 3c 19 e3 55 bc
       0.020482464 -0.040886585 0.009599077 -0.013054633
000070 e2 c6 9a 3c 81 77 77 bd fd 49 60 3d 80 0c 59 bd
       0.018893663 -0.060416702 0.05475806 -0.052990437
000080 2e 6e 5a 3d 3c e1 32 3d bc b5 70 bc 53 69 38 3c
       0.05332773 0.04367183 -0.014691766 0.01125558
000090 f4 bb 18 3a 8f 91 14 bb d8 bd 43 3d 04 8b 66 bd
       0.0005826347 -0.0022669767 0.04778847 -0.05628492
0000a0 1a 1f cd 3c d6 a0 ff 3b 32 04 ba bc c5 51 52 bc
       0.025039244 0.0078011556 -0.022707079 -0.012836878
0000b0 0e 02 d4 3c 6c 2f 71 bc 36 08 79 bd 66 13 36 3d
       0.025879886 -0.014720779 -0.060798846 0.044452094
0000c0 64 13 ed bc b6 56 de 3c 42 87 4f bd 90 f4 82 bd
       -0.02893991 0.027140956 -0.0506661 -0.06394303
0000d0 43 d7 ff 3c 71 cc bc bb e2 d8 03 3d c2 d8 24 bc
       0.031230574 -0.005761676 0.032189257 -0.010061445
0000e0 3b 20 bd 3c 29 e8 55 bc be ea bc bb 40 75 31 bc
       0.023086658 -0.01305584 -0.005765288 -0.010831177
0000f0 d8 7d f7 bc 49 0f fa bc c1 bb 3d 3d d4 ed a2 bd
       -0.030211374 -0.030524867 0.046321634 -0.07955518
000100 35 ba fa bc 79 77 35 3d 5a ca 66 bd 44 ef a9 3c
       -0.030606369 0.04430339 -0.05634532 0.020743974
000110 d1 7f 1f bd 4c 5e 0f 3d f7 9e 28 3c 24 a2 25 bd
       -0.038940255 0.035002038 0.010291806 -0.040437832
000120 8d 61 f1 bc b0 32 3e 3c fb 82 48 bd 92 7f e2 3c
       -0.029465461 0.0116087645 -0.048953038 0.02764872
000130 93 4b 53 bd c1 22 96 bc 52 fe 61 bc 35 5e 22 3d
       -0.051585745 -0.018327119 -0.013793545 0.039640624
000140 c1 4c 80 bd 07 ef 0a 3d b9 0b 88 bd db 36 dd bc
       -0.0626464 0.03391936 -0.06642861 -0.027003696
000150 aa 4f 37 3d 66 68 34 3d 33 06 e3 bc 88 f0 e3 3c
       0.044753708 0.044044875 -0.027712917 0.027824655
000160 2b 5f fa 3b de 7f 17 3d 53 1e 84 bc a8 4e a2 bd
       0.0076407394 0.036987178 -0.016127741 -0.07925159
000170 b9 26 7d bc db 6c 19 bc f3 cd 9a bd 42 13 3e 3c
       -0.015451127 -0.009364332 -0.07558813 0.011601271
000180 da 4d d7 bb 93 a1 1a 3d 37 f2 1e 3d 25 0f e4 bc
       -0.00657056 0.037751745 0.038805213 -0.027839253
000190 7d e8 ee 3c ab 8f 4a 3c c3 f1 34 bd c7 c4 18 3d
       0.029163593 0.012363355 -0.044175874 0.037297036
0001a0 aa 3a a8 3c b8 d7 2f 3d 40 d4 1e bd 54 26 51 3d
       0.020535786 0.042930335 -0.038776636 0.051061943
0001b0 0e c5 2d bd b4 cf 09 bd e9 44 83 3c 7f dc 1b 3d
       -0.042424254 -0.033645347 0.01602407 0.03805208
0001c0 43 b4 9e 3c 44 55 61 ba 9e 87 a1 ba 1d d7 67 bc
       0.019373065 -0.00085957744 -0.0012323742 -0.014150408
0001d0 45 45 a0 3c f8 25 6a 3d 07 4e e6 3c 16 9f 24 3d
       0.01956428 0.057165116 0.028113378 0.04019078
0001e0 27 52 f6 bc cc 51 d9 3c a3 1a 81 bd 8b 57 d9 3c
       -0.03006847 0.026528262 -0.06303909 0.026531002
0001f0 48 33 b7 3c 98 91 5e 3c 97 ba 29 3d e8 fc 8d bd
       0.02236332 0.013584517 0.04143771 -0.06933004
000200 a4 96 02 bc c0 79 45 bd 24 92 60 3d 81 ab 0b 3d
       -0.007970486 -0.048211813 0.05482687 0.034099106
000210 55 e0 24 bd a9 86 8c 3c 7c 67 9e 3b 01 cd 57 3d
       -0.040253002 0.017154055 0.0048341136 0.05268574
000220 ab 0b 9a bd d8 fc 21 3c a6 d9 04 3d 7e 7b 0b bd
       -0.07521757 0.009886943 0.03243413 -0.03405332
000230 cb 21 2e 3d 87 71 84 3d 40 f0 5a bc 08 41 6b bd
       0.042512696 0.06466966 -0.013362944 -0.057435066
000240 35 b6 80 3c 6a 47 73 bd 3d 52 c1 3d cc 21 ed bc
       0.015711883 -0.059394278 0.09439514 -0.02894678
000250 23 32 a6 bb 50 01 f3 3b a0 57 93 bd e3 64 0c bc
       -0.0050718947 0.007415928 -0.071944475 -0.008568975
000260 5c fd b7 bc 20 93 6e 38 a2 4b 18 bc f6 bc 03 bd
       -0.022459678 5.6880643e-05 -0.009295376 -0.03216263
000270 ad d8 8b bd 5d fb 38 3d 22 b6 6b bd 81 04 61 3c
       -0.06828437 0.045161594 -0.057546742 0.013733984
000280 34 87 cf 3c 1f 18 3c 3d be ab 43 3d 5e 94 60 bd
       0.025333025 0.04592144 0.047771208 -0.054828994
000290 45 00 cb bc 03 4c 00 bd 86 50 45 bd a7 32 5e bb
       -0.024780402 -0.03132249 -0.048172496 -0.0033904703
0002a0 5d ce a2 3d 46 c2 86 bd 98 33 22 bd d2 dd d8 bc
       0.07949517 -0.065800235 -0.039599985 -0.02647296
0002b0 3d 9f c9 bc 50 8f 9b bc 3b ae 2b 3d 96 e9 b3 bb
       -0.024612064 -0.018989235 0.041914206 -0.005490492
0002c0 1a cb 86 bc 83 b3 1c 3d 0b 51 c8 bc 08 e3 9a 3c
       -0.016454268 0.038257133 -0.024452707 0.018907085
0002d0 a1 65 26 bc c7 dc 16 3d ff 56 37 3c c1 58 3b bc
       -0.010156066 0.036831643 0.011190175 -0.011434735
0002e0 98 03 ee ba 0f 0e 39 bc f2 55 19 bd be 4d c1 3c
       -0.001815903 -0.011294856 -0.03743548 0.02359664
0002f0 0d c8 84 3c c7 3d fb 3a 56 77 5a 3d a0 da 1c bd
       0.016208673 0.0019168191 0.053336464 -0.038294435
000300 da b5 23 3d fe 73 15 3d 81 e3 f4 bb cd c1 8f bd
       0.03996835 0.036487572 -0.0074734096 -0.070193864
000310 8f c1 c6 3c 58 37 1e bd 7d 04 22 3c dc 13 0c 3d
       0.024262218 -0.038627 0.009888765 0.034198627
000320 c8 0a 19 3d 08 17 2d bd 9d 14 23 bd 1e cb 9b bc
       0.037363797 -0.042258292 -0.03981458 -0.019017752
000330 d9 90 9d 3c d5 3a 33 3d 90 46 d7 bc 5c d9 30 3d
       0.019234108 0.04375728 -0.026278764 0.04317604
000340 2b 32 d1 bc a9 06 18 bc 4b 95 8f bd df 92 4b bd
       -0.025536617 -0.009278932 -0.07010897 -0.049700614
000350 42 d0 ea bc c3 0d 4e 3d 35 23 10 3c 53 a9 38 bd
       -0.028663758 0.050306093 0.0087974565 -0.045083355
000360 e3 2b 24 3d a4 88 7e bc c1 8c 83 bd 5e 53 93 bb
       0.040080916 -0.015535507 -0.06423331 -0.004496022
000370 4f ed 9e bd d8 a3 7d bd 04 b4 7d bd 3b 7b 0a 3d
       -0.07760107 -0.06192383 -0.061939254 0.033808928
000380 5c 3a 5c 3d c7 0c 1c 3d e7 59 56 3c df 4b b7 3b
       0.053766593 0.038098123 0.013082958 0.0055937613
000390 c4 87 06 3d d4 ff c0 3b 95 17 4e bd 5c 47 10 3c
       0.03284432 0.005889872 -0.05031546 0.008806076
0003a0 0c d3 7b bc 47 7f 22 bd fc 50 d8 3c e8 d2 37 bd
       -0.015370142 -0.039672162 0.026405804 -0.04487887
0003b0 67 ed 67 bd ab a4 9b bd bc da 3f 3b 54 c6 1a 3d
       -0.05662289 -0.07599767 0.0029274663 0.037786797
0003c0 70 d2 0a 3d 4a 7b 13 3d 01 7f 94 3d 2b ee fb bc
       0.033892095 0.03600625 0.072507866 -0.030753216
0003d0 90 ad 4f 3b c4 eb 5b 3c 41 59 9d 3c e3 28 37 3d
       0.0031689145 0.01342291 0.019207599 0.044716727
0003e0 26 5b 21 3d 65 4e dd 3c b8 b9 e5 bb 04 54 3a bd
       0.039393567 0.02701492 -0.007010665 -0.04549028
0003f0 d2 b8 16 3d 90 ef 57 3c 1f 49 2c bd f5 a5 32 3d
       0.036797352 0.013179675 -0.04206192 0.0436153

linear2.bias f4 [3]
000000 aa 40 8e bc 52 93 8a 3b b9 27 06 bc
       -0.017364819 0.0042289877 -0.008188182
