code/model/model.pth (torch, 16787 bytes, 4 tensors)

linear1.weight f4 [256, 11]
-0.17601907 -0.094204396 -0.15385252 0.2127198 0.04595363 0.23564556 0.11605215 0.092768945
0.05384604 -0.1589979 -0.17693308 -0.24498028 -0.026453108 -0.13643122 -0.16523863 -0.0065483153
-0.0010576248 0.070871174 0.013127059 -0.2033953 0.055309415 0.026598483 -0.25459915 -0.27946594
-0.24963176 0.12952535 0.0034065747 -0.09999926 0.014686795 0.25410208 -0.20664999 -0.1278262
-0.26575512 -0.052779093 -0.18952239 0.2157062 -0.24207693 0.15024698 0.15033738 -0.052359506
-0.10166657 -0.3013733 0.2898362 0.23994099 0.19131304 -0.19601606 0.12957025 0.050446823
0.25214648 0.102685034 -0.29064122 0.23799366 0.07075632 -0.2872287 -0.26295635 0.047989808
0.06135134 0.20853317 -0.23843412 -0.29067746 0.052784435 -0.22210838 0.15903513 0.27297902
0.28616312 -0.19871591 -0.274044 -0.10894617 -0.077642314 0.18424492 0.27053007 -0.28977188
0.037254177 -0.0072858366 -0.29048297 0.2340223 -0.079619765 -0.0859184 0.1561445 0.2594478
0.08629211 0.04917419 -0.04866366 0.063194335 -0.047255456 -0.2478869 -0.051780418 -0.06304694
0.19897288 -0.0645134 0.14432941 0.09857876 0.00851367 -0.046905708 -0.29814565 -0.12889035
-0.2685626 0.28089467 0.2442437 0.07123013 -0.056730922 0.10872455 0.26552254 -0.06689302
0.1539988 -0.06514439 -0.103845224 -0.124735765 0.23634359 0.00540608 0.22594826 -0.03611257
-0.03003658 0.17840068 0.06591009 -0.12559494 0.23310299 0.10645129 -0.25143772 0.19158006
-0.08590852 0.29504105 -0.28234366 0.15983652 0.013218835 -0.03670896 -0.011658057 0.20981568
0.14885889 -0.14090465 -0.04462388 -0.13510624 0.030379442 -0.23156537 0.12880634 -0.2225779
0.20063908 -0.13068548 0.06748254 0.16873544 0.18922524 -0.14936471 -0.25728694 -0.13742511
0.20924248 -0.15104714 0.12482816 -0.10167664 0.28074563 -0.21871144 0.24355403 0.26240146
-0.24420911 0.22933282 0.09806427 0.09640613 0.21587378 -0.17069882 -0.22577827 -0.07230412
-0.20232141 -0.17757516 0.13895757 -0.13875961 -0.07316003 0.081475854 0.11906287 0.17468613
0.25673398 0.034019865 -0.20439538 0.05350857 -0.28688216 0.2950198 -0.17027304 -0.079553664
-0.007961683 0.13335817 0.30782807 0.16018054 0.10675391 0.13627179 0.22515523 -0.23453411
0.09993518 -0.09382499 0.09002829 -0.14124466 -0.20345782 -0.21310861 -0.2969492 0.0035943242
0.07036219 -0.20207962 0.1501914 -0.14003645 0.09033713 -0.19951376 -0.050839722 0.19631395
-0.08241612 0.11206005 -0.21167226 -0.088995904 0.25745267 -0.1738736 -0.15346485 -0.29035923
0.25436023 0.20873982 0.23809727 -0.26465285 -0.10467689 0.08068103 -0.24484365 -0.029025944
0.14347726 0.09207623 -0.1990766 0.1286895 -0.15312597 -0.15808196 0.24042197 0.16074628
-0.22162943 0.11056457 0.1057457 -0.12726769 0.03753882 0.059844896 0.22510815 0.16144156
-0.08306776 0.12845835 -0.28038 -0.24121445 0.017957013 0.15094626 0.27381864 0.05966876
-0.034518674 -0.06768786 -0.26881742 -0.21847826 -0.28948933 -0.07282107 -0.12115412 0.13276462
0.2684869 0.07031181 0.19198884 0.013675403 -0.08672469 -0.27556396 -0.0880519 -0.067436144
00000000: 583e 34be 3cee c0bd 848b 1dbe 38d3 593e
00000010: e039 3c3d 124d 713e c0ac ed3d a5fd bd3d
00000020: aa8d 5c3d 58d0 22be f22d 35be 1cdc 7abe
00000030: 30b4 d8bc a0b4 0bbe 5134 29be 4093 d6bb
00000040: 00a0 8aba e824 913d e012 573c dc46 50be
00000050: 208c 623d 10e5 d93c d25a 82be 2916 8fbe
00000060: 789f 7fbe 4ba2 043e d740 5f3b 69cc ccbd
00000070: e2a0 703c ab19 823e 0e9c 53be dfe4 02be
00000080: 0e11 88be e42e 58bd 2812 42be 16e2 5c3e
00000090: 04e3 77be 58da 193e 0bf2 193e ec76 56bd
000000a0: 9036 d0bd 9a4d 9abe 6965 943e 17b3 753e
000000b0: 91e7 433e 6fb8 48be 10ae 043e 54a1 4e3d
000000c0: 5819 813e 884c d23d edce 94be 9cb4 733e
000000d0: b1e8 903d a40f 93be 37a2 86be f690 443d
000000e0: 8b4b 7b3d b889 553e 1328 74be add3 94be
000000f0: 7e34 583d 6170 63be 1bda 223e e8c3 8b3e
00000100: f983 923e 2f7c 4bbe 7f4f 8cbe 2b1f dfbd
00000110: ef02 9fbd b3aa 3c3e eb82 8a3e fb5c 94be
00000120: d697 183d 07be eebb 2fba 94be 8ba3 6f3e
00000130: b00f a3bd fcf5 afbd 58e4 1f3e 58d6 843e
00000140: ebb9 b03d e06a 493d 8c53 47bd 086c 813d
00000150: f08e 41bd 10d6 7dbe b417 54bd c11e 81bd
00000160: 8cbf 4b3e 9a1f 84bd 17cb 133e a9e3 c93d
00000170: ec7c 0b3c 3320 40bd 8ca6 98be d5fb 03be
00000180: 0981 89be 6dd1 8f3e 051b 7a3e 1ae1 913d
00000190: af5e 68bd faaa de3d 92f2 873e 35ff 88bd
000001a0: ddb1 1d3e 6c6a 85bd ceac d4bd 7775 ffbd
000001b0: 0e04 723e 7c25 b13b fb5e 673e c6ea 13bd
000001c0: 460f f6bc abae 363e dffb 863d f69b 00be
000001d0: 8db2 6e3e 2203 da3d 72bc 80be 902d 443e
000001e0: cef0 afbd 9f0f 973e 598f 90be 2fac 233e
000001f0: d093 583c 225c 16bd 6f01 3fbc ecd9 563e
00000200: 776e 183e 4f49 10be 88c7 36bd 4a59 0abe
00000210: 4fde f83c 791f 6dbe cfe5 033e 76eb 63be
00000220: 5574 4d3e 6ad2 05be 4934 8a3d fcc8 2c3e
00000230: 43c4 413e 10f3 18be 1dbb 83be 2bb9 0cbe
00000240: a943 563e 1aac 1abe e8a5 ff3d d83b d0bd
00000250: e4bd 8f3e e4f5 5fbe 3a66 793e 7c59 863e
00000260: f411 7abe 39d6 6a3e ecd5 c83d 9470 c53d
00000270: 040e 5d3e accb 2ebe 6b32 67be 2f14 94bd
00000280: 582d 4fbe 43d6 35be e54a 0e3e 0017 0ebe
00000290: edd4 95bd d0dc a63d 3cd7 f33d ece0 323e
000002a0: a372 833e 6a58 0b3d 064d 51be cd2b 5b3d
000002b0: 38e2 92be d60c 973e 0e5c 2ebe 08ed a2bd
000002c0: b871 02bc 0b8f 083e a49b 9d3e 5e06 243e
000002d0: cba1 da3d d58a 0b3e 188f 663e b629 70be
000002e0: d1aa cc3d 5127 c0bd c160 b83d 71a2 10be
000002f0: 3f57 50be 2539 5abe ba09 98be c18e 6b3b
00000300: 0d1a 903d f6ed 4ebe c6cb 193e b765 0fbe
00000310: ac02 b93d 564d 4cbe 503d 50bd 8606 493e
00000320: c8c9 a8bd bd7f e53d 9dc0 58be 7c43 b6bd
00000330: d6d0 833e ec0b 32be e425 1dbe f7a9 94be
00000340: 813b 823e e4bf 553e c5cf 733e 9480 87be
00000350: d660 d6bd 193c a53d 4bb8 7abe d1c7 edbc
00000360: b4eb 123e 7692 bc3d bcda 4bbe 2ec7 033e
00000370: 0ecd 1cbe 3de0 21be 2d31 763e ac9a 243e
00000380: d3f2 62be ad6f e23d 3491 d83d 7652 02be
00000390: 4ec2 193d ec1f 753d c082 663e f050 253e
000003a0: 6e1f aabd 968a 033e f88d 8fbe ec00 77be
000003b0: 961a 933c a891 1a3e f531 8c3e 3b67 743d
000003c0: 7463 0dbd ef9f 8abd 70a2 89be c4b8 5fbe
000003d0: f237 94be 3723 95bd a71f f8bd 73f3 073e
000003e0: 1d77 893e a3ff 8f3d b998 443e cc0e 603c
000003f0: b79c b1bd b816 8dbe 8e54 b4bd f61b 8abd

linear1.bias f4 [256]
-0.32399982 -0.23531342 -0.057938498 -0.2571462 0.2446208 0.2166232 0.19009697 -0.19698961
-0.2318356 0.09800779 0.19348362 0.162954 0.28506592 0.2657949 0.106759876 0.29132152
0.23952915 -0.13374239 -0.29741868 -0.04399283 -0.07751406 0.17004459 0.11220702 0.07978525
-0.27343735 0.275039 0.054051176 0.08870194 -0.02246603 0.009548663 -0.10269691 -0.02227675
0.1581346 -0.13184758 -0.22767156 0.2842033 0.08452711 -0.056326225 0.2993564 -0.24767815
0.2572115 -0.1548987 0.025641266 0.27275229 -0.051883586 -0.15485446 -0.1673004 -0.12197363
0.25173634 0.23118892 0.1736687 0.08040104 0.17203674 -0.27484885 0.1385043 -0.2024242
-0.24282104 0.08569979 -0.25040781 0.1670054 -0.2444839 -0.28740713 0.10236997 0.015515891
-0.13731359 -0.22128703 0.21100649 -0.12539469 0.15829113 -0.20690487 0.03635091 -0.28978366
-0.04455146 0.21585482 -0.07333268 0.18252559 -0.23148997 -0.0947784 0.07905235 0.06811809
0.2007506 0.059958592 -0.18522558 -0.09946116 -0.12593016 0.053241137 -0.0793887 0.051191017
-0.24156202 0.14884947 -0.01610884 -0.23630072 -0.25621533 -0.1888156 0.17367388 -0.26460692
0.17908691 0.13214844 0.022137918 -0.122945465 -0.10583683 -0.076552965 -0.17032847 0.013989024
-0.1383278 0.25065044 -0.103787854 -0.028964669 -0.16147646 0.06357991 0.2028496 0.16061293
-0.088512175 0.055824842 -0.2656242 0.1666519 0.020716446 -0.016524227 0.17194866 -0.039725788
-0.19547902 0.23960832 -0.034931194 0.25618437 0.056921173 0.21660589 0.108737074 0.082751974
-0.028220005 -0.294202 0.07463193 0.2288781 -0.18769754 0.24959934 -0.16732301 -0.24246025
0.13562706 0.27862412 -0.19020358 0.09100542 -0.049509063 -0.033052452 -0.29196107 -0.1162451
-0.26633185 0.18347548 0.23942006 -0.15847221 0.102747776 -0.21736814 0.19244882 0.07328627
-0.05826092 0.03501942 -0.1829886 0.045684602 0.06729234 0.22792175 0.18211433 0.01907972
-0.108444 -0.09541395 -0.16443524 0.26661167 -0.27039644 -0.28149185 -0.030991996 -0.19172429
0.17321043 -0.06981754 -0.24735546 -0.31254867 0.18771203 0.13577652 0.1341164 0.009999511
0.31083784 -0.19125314 -0.22852442 0.21394104 -0.02741167 -0.09257302 -0.19167392 -0.11020971
0.24258307 0.26327318 -0.19129747 0.2026614 -0.18648298 0.23628506 -0.13493289 -0.18290202
0.17253932 -0.24352904 -0.08656447 0.29259533 -0.1357982 -0.04886253 -0.021079557 -0.053284332
-0.05588668 0.11210771 -0.062784836 0.060173385 0.10035254 0.065501474 0.1951509 0.16943683
-0.26347205 -0.09107232 0.20036107 0.11421734 0.17473371 -0.054443173 0.12883899 0.05332027
-0.18544179 -0.23681912 -0.053383965 0.06617021 0.14637345 0.2386384 0.059403412 0.24642736
0.30285525 0.0925955 -0.13154241 -0.00418925 -0.25219232 0.1039241 0.16966449 -0.04354839
-0.14281234 -0.29530546 0.13902494 0.23153308 -0.13330585 -0.2871606 -0.120674595 0.04520747
0.17698793 0.10754934 0.24487741 -0.27354553 0.22094035 -0.17168167 -0.07189029 -0.19264258
-0.060823068 0.15987155 0.04836983 -0.18603389 0.10974456 -0.17413954 0.24457045 0.02501172
00000000: 4ee3 a5be 00f6 70be eb50 6dbd aba8 83be
00000010: e07d 7a3e 79d2 5d3e c8a8 423e a5b7 49be
00000020: 5066 6dbe 4fb8 c83d 9220 463e 6add 263e
00000030: 29f4 913e 4516 883e eca4 da3d 1828 953e
00000040: 2147 753e c4f3 08be 4347 98be d331 34bd
00000050: b1bf 9ebd 2b20 2e3e cbcc e53d 7366 a33d
00000060: fbff 8bbe e9d1 8c3e c464 5d3d 5da9 b53d
00000070: ae0a b8bc ff71 1c3c c252 d2bd bb7d b6bc
00000080: 09ee 213e 0d03 07be bc22 69be 1883 913e
00000090: 8d1c ad3d 54b6 66bd 3e45 993e 579f 7dbe
000000a0: 3ab1 833e c49d 1ebe a20d d23c 30a6 8b3e
000000b0: e283 54bd 2b92 1ebe cc50 2bbe 4fcd f9bd
000000c0: 96e3 803e cabc 6c3e 35d6 313e 4da9 a43d
000000d0: 662a 303e fdb8 8cbe 12d4 0d3e 4a48 4fbe
000000e0: 14a6 78be 5f83 af3d 7435 80be 7703 2b3e
000000f0: fd59 7abe 0727 93be 59a7 d13d 5d36 7e3c
00000100: ef9b 0cbe 1199 62be 1612 583e 7767 00be
00000110: 1217 223e dfde 53be b1e4 143d 865e 94be
00000120: 977b 36bd 0c09 5d3e 722f 96bd fde7 3a3e
00000130: b50b 6dbe 2e1b c2bd 33e6 a13d 7f81 8b3d
00000140: 9191 4d3e 2497 753d c6ab 3dbe 4bb2 cbbd
00000150: d6f3 00be 6113 5a3d 8b96 a2bd acad 513d
00000160: 095c 77be ff6b 183e b0f6 83bc d1f8 71be
00000170: a82e 83be e058 41be 91d7 313e 8f7a 87be
00000180: 8f62 373e ec51 073e 945a b53c d5ca fbbd
00000190: fbc0 d8bd cdc7 9cbd 966a 2ebe 3832 653c
000001a0: cea5 0dbe 4155 803e ba8e d4bd 5047 edbc
000001b0: 165a 25be 2f36 823d ceb7 4f3e b777 243e
000001c0: df45 b5bd 97a8 643d e5ff 87be cca6 2a3e
000001d0: 89b5 a93c d15d 87bc 4f13 303e 82b7 22bd
000001e0: a72b 48be e25b 753e 0314 0fbd 992a 833e
000001f0: 2d26 693d efcd 5d3e 8bb1 de3d de79 a93d
00000200: a42d e7bc a5a1 96be a0d8 983d 055f 6a3e
00000210: c933 40be f896 7f3e b956 2bbe 8047 78be
00000220: d2e1 0a3e d2a7 8e3e bac4 42be 0d61 ba3d
00000230: 04ca 4abd 0262 07bd ec7b 95be e911 eebd
00000240: a65c 88be ffe0 3b3e 882a 753e 8a46 22be
00000250: 6d6d d23d c195 5ebe 4e11 453e 1d17 963d
00000260: 01a3 6ebd 8670 0f3d 5d61 3bbe c71f 3b3d
00000270: 91d0 893d 5264 693e 2e7c 3a3e 134d 9c3c
00000280: e317 debd 6468 c3bd b661 28be 5381 883e
00000290: 6771 8abe b31f 90be ede2 fdbc 5f53 44be
000002a0: 135e 313e 80fc 8ebd c04a 7dbe 6106 a0be
000002b0: 9537 403e 0009 0b3e cf55 093e fdd4 233c
000002c0: 2326 9f3e ddd7 43be 4e02 6abe 5c13 5b3e
000002d0: 708e e0bc ec96 bdbd 2b46 44be a1b5 e1bd
000002e0: b267 783e becb 863e 7ce3 43be 7886 4f3e
000002f0: 65f5 3ebe b6f4 713e d92b 0abe ab4a 3bbe
00000300: 26ae 303e ad5f 79be b648 b1bd 0ecf 953e
00000310: af0e 0bbe 1424 48bd 09af acbc ac40 5abd
00000320: 6ee9 64bd ba98 e53d 5695 80bd 5e78 763d
00000330: a285 cd3d a325 863d a3d5 473e d980 2d3e
00000340: cfe5 86be 2084 babd 742b 4d3e c8ea e93d
00000350: 65ed 323e ceff 5ebd 5eee 033e 5b66 5a3d
00000360: 74e4 3dbe b680 72be 25a9 5abd 3f84 873d
00000370: ece2 153e a05d 743e fe50 733d 7457 7c3e
00000380: d80f 9b3e b6a2 bd3d 0eb3 06be fa45 89bb
00000390: 5a1f 81be 29d6 d43d 87bc 2d3e cc5f 32bd
000003a0: 663d 12be 4732 97be 8e5c 0e3e 0217 6d3e
000003b0: 5481 08be b706 93be 3e24 f7bd 782b 393d
000003c0: 533c 353e d442 dc3d 25c1 7a3e 290e 8cbe
000003d0: 303e 623e 52cd 2fbe 373b 93bd 1944 45be
000003e0: 9c21 79bd 5eb5 233e 711f 463d ab7f 3ebe
000003f0: c2c1 e03d a351 32be ad70 7a3e 61e5 cc3c

linear2.weight f4 [3, 256]
0.060276248 -0.03448838 -0.01010887 -0.062388483 0.05068467 -0.058491975 0.0035674125 -0.0051369136
0.019491553 -0.030427294 -0.02957365 -0.031589743 0.029495846 0.026794499 0.030646315 -0.016879035
-0.043568913 0.03915588 0.029644452 -0.07459846 -0.013821261 -0.020481307 0.005050646 -0.014872524
-0.03155592 0.0028899596 0.010387907 -0.05453936 -0.04368803 0.05529104 0.016452225 0.025311213
0.022679364 -0.042241126 -0.03251935 0.006529554 -0.0061293393 0.0016307465 0.07308215 0.022126503
-0.06255863 0.05966338 -0.089443855 0.032690175 -0.02576249 -0.0079852715 -0.03428717 -0.046856254
-0.048790175 0.042421307 -0.033303544 -0.06628022 -0.0046472186 -0.03334537 -0.0026953905 -0.0065692887
0.030155761 0.014031737 -0.03988138 -0.019378165 -0.000950329 0.012873803 0.01970273 0.0335731
0.022268318 -0.023799432 0.0063007 -0.06257578 0.023791531 -0.00201175 -0.04761257 0.016529895
0.024477141 0.030117534 -0.053491794 -0.015075185 0.06240601 0.030363366 0.008112061 0.049835604
-0.04022004 -0.0447204 0.040401038 -0.06503638 0.019599928 0.02322802 0.071451254 0.05536314
0.058857366 -0.028435064 -0.047866017 0.009131267 0.036765657 0.054508746 -0.030145356 -0.036804266
0.041758318 0.037619535 0.010928803 -0.055632655 -0.05385977 0.020993717 -0.028001677 0.005147798
-0.06728071 -0.0074533215 -0.030736223 0.027598463 0.005754292 -0.038471308 0.054383982 -0.02227857
-0.008505015 -0.03672215 0.022849724 0.06881606 -0.050422505 0.034733493 0.051469345 -0.0006743369
-0.070890084 -0.013325872 0.006860663 -0.035606623 -0.023502294 0.008903282 0.017546631 -0.010849034
0.058300894 0.02133085 -0.058095597 -0.051472466 -0.031045932 0.030865386 -0.058583245 -0.039481465
-0.005061668 -0.017235942 -0.009458564 0.021976415 0.03780937 0.018818894 0.01661335 -0.005425123
-0.041994028 -0.057219777 -0.015857995 0.049212288 0.024217209 0.03798814 -0.022877485 -0.014642604
0.032245178 -0.045851465 -0.07213512 0.013373066 0.015198556 -0.020871434 0.055246606 -0.023730518
-0.0458843 -0.05698635 0.015119456 -0.025154708 -0.024684511 -0.058121905 0.039459217 0.0056960485
-0.020021161 0.042680897 -0.06430444 0.0054439986 -0.04417247 -0.011579865 0.051947378 -0.021960406
-0.03721415 -0.027839482 -0.059493244 -0.025984861 0.019949842 -0.040805712 -0.039478667 -0.008979234
-0.050824028 -0.028120859 -0.003319032 -0.055112936 -0.011600199 0.043426666 0.017908413 -0.059746575
0.032341704 -0.0042454177 0.009945839 -0.014869892 0.012139123 0.013024792 -0.06429875 -0.020157143
-0.03231554 0.061241556 0.023058735 -0.008431539 -0.0046275584 0.0517373 0.032697387 0.069945686
-0.032401957 -0.026781317 0.014112076 -0.042552635 -0.004324417 0.074099824 0.01601393 -0.037655406
0.044406734 -0.061664283 -0.0043470263 0.0078032697 0.019227998 -0.037030634 0.017533008 -0.0032620404
-0.0432313 -0.0207783 -0.04368365 -0.041645173 0.004830338 0.039410446 0.037543256 -0.022206968
-0.057192985 -0.06783914 -0.039261684 0.033072818 -0.064603575 0.023547577 0.063160695 -9.272975e-05
0.050218657 -0.06010572 -0.011248394 0.04020176 0.034307398 -0.035964318 0.034886867 -0.016525604
-0.054177847 -0.014871767 0.028312664 0.008492865 0.035086744 -0.042300608 0.020596977 0.033211373
00000000: 3ae4 763d b043 0dbd ad9f 25bc 118b 7fbd
00000010: bb9a 4f3d 4895 6fbd 40cb 693b 8e53 a8bb
00000020: c0ac 9f3c a942 f9bc 7044 f2bc 3f64 01bd
00000030: 46a1 f13c 2380 db3c fb0d fb3c e745 8abc
00000040: 5175 32bd eb61 203d ecd8 f23c 14c7 98bd
00000050: 9272 62bc 6ac8 a7bc e47f a53b e3ab 73bc
00000060: c840 01bd 7a65 3d3b 0a32 2a3c aa64 5fbd
00000070: 38f2 32bd dc78 623d d1c6 863c 7659 cf3c
00000080: 13ca b93c 0805 2dbd 0333 05bd def5 d53b
00000090: a0d8 c8bb c6be d53a 18ac 953d a442 b53c
000000a0: bd1e 80bd 9761 743d 572e b7bd 22e6 053d
000000b0: dc0b d3bc a8d4 02bc b470 0cbd 58ec 3fbd
000000c0: 35d8 47bd f7c1 2d3d 4c69 08bd edbd 87bd
000000d0: b247 98bb 2895 08bd 26a5 30bb 3043 d7bb
000000e0: 3709 f73c 5fe5 653c a85a 23bd f5be 9ebc
000000f0: 801f 79ba a5ec 523c 9f67 a13c f283 093d
00000100: 0c6c b63c 07f7 c2bc 1a76 ce3b bb27 80bd
00000110: 75e6 c23c 90d7 03bb 6605 43bd b469 873c
00000120: 4984 c83c 0cb9 f63c 361a 5bbd e9fd 76bc
00000130: 729d 7f3d 98bc f83c 73e8 043c 6b20 4c3d
00000140: c5bd 24bd bd2c 37bd 8f7b 253d cb31 85bd
00000150: 0790 a03c b048 be3c 0955 923d 76c4 623d
00000160: 6c14 713d a7f0 e8bc 280f 44bd 4f9b 153c
00000170: 9697 163d 9044 5f3d 65f3 f6bc 12c0 16bd
00000180: c50a 2b3d f116 1a3d b90e 333c 11df 63bd
00000190: 109c 5cbd 04fb ab3c c663 e5bc dcae a83b
000001a0: 78ca 89bd fe3a f4bb 88ca fbbc 2c16 e23c
000001b0: 808e bc3b 1794 1dbd bdc1 5e3d 8c81 b6bc
000001c0: 9e58 0bbc f769 16bd 582f bb3c 6fef 8c3d
000001d0: d487 4ebd b544 0e3d 85d1 523d fcc5 30ba
000001e0: d22e 91bd c254 5abc 6acf e03b 40d8 11bd
000001f0: e287 c0bc 12df 113c f4bd 8f3c 26c0 31bc
00000200: ebcc 6e3d 09be ae3c a6f5 6dbd cbd4 52bd
00000210: 0a54 febc 68d9 fc3c fcf4 6fbd 51b7 21bd
00000220: 59dc a5bb 6432 8dbc 18f8 1abc e207 b43c
00000230: ffdd 1a3d 152a 9a3c b818 883c 3bc5 b1bb
00000240: ee01 2cbd 495f 6abd a0e8 81bc d392 493d
00000250: 2b63 c63c 7499 1b3d 9069 bbbc 88e7 6fbc
00000260: 8513 043d bfce 3bbd 94bb 93bd b41a 5b3c
00000270: 5d03 793c 92fa aabc 444a 623d 8166 c2bc
00000280: 2df1 3bbd 856a 69bd 98b7 773c 3f11 cebc
00000290: 2c37 cabc 3c11 6ebd fd9f 213d eba5 ba3b
000002a0: 6b03 a4bc 2ad2 2e3d 0cb2 83bd 9263 b23b
000002b0: 31ee 34bd 79b9 3dbc c6c6 543d 4fe6 b3bc
000002c0: dd6d 18bd a00f e4bc 30af 73bd 34de d4bc
000002d0: da6d a33c e423 27bd 62b4 21bd a31d 13bc
000002e0: db2c 50bd b75d e6bc 1e84 59bb 1abe 61bd
000002f0: c30e 3ebc 29e0 313d aab4 923c d3b8 74bd
00000300: bc78 043d 251d 8bbb dff3 223c d9a0 73bc
00000310: 2ce3 463c f065 553c 10af 83bd 9820 a5bc
00000320: 4d5d 04bd 6dd8 7a3d ace5 bc3c 7024 0abc
00000330: c6a2 97bb 7eea 533d b2ed 053d af3f 8f3d
00000340: eab7 04bd 7e64 dbbc 5636 673c ac4b 2ebd
00000350: d7b3 8dbb a6c1 973d a52f 833c 8e3c 1abd
00000360: d6e3 353d b093 7cbd 8071 8ebb 92b2 ff3b
00000370: 0984 9d3c 6fad 17bd 62a1 8f3c f5c7 55bb
00000380: 4e13 31bd 4137 aabc a1ed 32bd 2194 2abd
00000390: d047 9e3b d96c 213d f5c6 193d 63eb b5bc
000003a0: 3143 6abd 3fef 8abd dcd0 20bd 5d77 073d
000003b0: e14e 84bd d9e6 c03c 655a 813d e877 c2b8
000003c0: 14b2 4d3d 6a31 76bd 2f4b 38bc 9aaa 243d
000003d0: ea85 0c3d 524f 13bd 88e5 0e3d b460 87bc
000003e0: 97e9 5dbd b6a8 73bc f6ef e73c a825 0b3c
000003f0: 1eb7 0f3d 6743 2dbd feba a83c a608 083d

linear2.bias f4 [3]
-0.013163235 -0.029407948 0.061919935
00000000: 9caa 57bc f0e8 f0bc c29f 7d3d
