code/model/model.pth (torch, 16787 bytes, 4 tensors)

linear1.weight f4 [256, 11]
00000000: 43ab e93d d333 81be 1a47 9e3e 7b18 f43d
00000010: 7e80 30be 53fa a83e 84e7 54be f45f 4abe
00000020: 614a 85be 120e a4be 8462 953e 0f1f 8a3d
00000030: c46e 573e b40c 11bd 5127 293e a1b4 fdbd
00000040: 7910 8d3e 233e 40be f25f 72be 1f59 573e
00000050: 94b6 31be b792 0ebe 7ef5 4cbc e4d9 08bd
00000060: 3a71 0abe 0963 68be 9583 8abd ca00 c9bd
00000070: 8902 14be aeb5 813e 0228 86be db9e ddbd
00000080: 2d46 d7bd 630e 74be e0d9 5abc 943d 423e
00000090: 6c5b 223e 40e3 fbbc 5991 023e 439c dfbc
000000a0: 15eb 0bbe a662 9c3c ccbe a0be c7ed 83bd
000000b0: 06b7 0a3d 7d48 92be 3769 32be cbdd 31bd
000000c0: f2fc 03be dddb 503e fc78 1e3d 9d11 80be
000000d0: a0a8 413e 6425 813e 974b 8b3e 159b 793d
000000e0: a869 6c3d 4226 773e 6ab0 52be ddb2 0dbd
000000f0: 1015 b6bc ec22 0b3e 27cb 0a3e 89d4 ea3d
00000100: 4c36 2abe 6d5c 28be 328c df3b 3488 343e
00000110: ecb3 26be 3613 39bd 3aef 48be e32d 6bbe
00000120: 733c c33d bcc1 5fbd ca24 1f3e 7b57 9a3e
00000130: 9bda 0bbe ee76 54be 770e 82be 169a 6d3e
00000140: f8a8 0fbe d3e1 8bbe 2ac1 cdbd d273 a7bc
00000150: 8535 7a3d e03b e13d 6420 0ebe 8c6b 153e
00000160: 3c4c 3d3d ec08 913e 4821 a8bd bcc9 1b3e
00000170: a2ff eb3d e5ac 193e 13c8 87be 3fed 56be
00000180: d94a 503e 5afd e33a ad4b 053c 5900 00be
00000190: 4533 9d3e ccae 013e 7240 96be e1c3 823e
000001a0: 7c79 e93d 6f0e ecbd 364b 963b 58d1 56be
000001b0: 686f 923c 57fb 793e f3ac 153e 9c8d e13d
000001c0: 08d7 bd3d 7bcf 2e3e 7d26 41bd 50c2 693e
000001d0: 3e76 88be 7d0a fb3a 1d5a 3b3d bb91 96be
000001e0: b504 6dbe 2203 92be e495 0f3e ffa7 4dbe
000001f0: d635 fb3d 9a57 073e 2793 75bd e84d 923e
00000200: 91f2 3f3e a9a1 63be 073d 123e 710f 4fbe
00000210: e648 a03c d842 19be 25b0 353e 1367 02bd
00000220: 76c4 35be 5cdd af3d f731 3a3e 8630 ebbc
00000230: 470b d33d 55d7 4dbd ebfb 77bd f950 b5bd
00000240: 4a4c 023e 7351 61be f7bc 06be 8bb4 803e
00000250: 5e2c 65be fce9 003d 9e04 8bbe 3594 7abe
00000260: 7776 1a3e 3d77 7c3e 1cb3 9e3d 463e 813e
00000270: 403b 9ebb 49b6 813e dac0 42be da38 2fbe
00000280: c08f f03b 2e57 80be e4a8 8ebe 2821 37be
00000290: 39dc 09be 7401 843e 7cc8 b4bd e300 1d3e
000002a0: ddfe 8fbe 8010 febd 4d16 5bbe abcc 6fbd
000002b0: ca52 eabc 2c5f 2cbe 88cd 96be 328a 183e
000002c0: c892 28be baea 86bd 6a5b 8ebb 3068 b33c
000002d0: 29e8 49be 9f64 753e a488 3fbe 220c 423e
000002e0: 3920 38be 1913 80be fea1 1d3e d457 98bd
000002f0: 9343 b23d 7e09 133e 08bf 783d 3c5d 103e
00000300: 2b75 b8bc 4914 943e 376e a53e 2ca9 66be
00000310: 2095 da3b 0bbd a63e d04f 0abe d75d 10be
00000320: 67d9 07be b6d0 c23d dd0b 303e 7088 0bbe
00000330: be19 2bbe 909f 8d3b e837 163e a475 893a
00000340: 3d00 a03c dd74 2f3e 22e8 41be 341d 603e
00000350: 38e5 84bd f427 763e 2734 6a3e 3f27 963e
00000360: becc 013d 47f0 85be e4ee 83be d7d7 d7bd
00000370: 707a 903d 41ed 173e 3f3a dc3b 7752 86bd
00000380: 1dc9 1dbe 5b28 16be f10a 00be 2fea 8b3e
00000390: 7e38 67be 4eee 57bd 3996 bf3d 0b9c 753e
000003a0: 944f 653e 4edd 953e 4ae1 633e e168 ddbc
000003b0: ea0a 47be 02e4 f03c 8469 cd3b 1b3b 0fbe
000003c0: 7379 903d ca7f 263e fb0d 46be b35f a13b
000003d0: 3393 663e cfa9 75be b24a 3f3e c4ef 8f3d
000003e0: edd7 3fbe 6723 0bbe b33c e53c 0ba9 8e3e
000003f0: 3533 d1ba fab3 63bd 035b 1abe 742b 1cbe
0.11409619 -0.2523485 0.3091362 0.11918732 -0.17236516 0.33003482 -0.20791441 -0.19763166
-0.2603331 -0.32041985 0.29176724 0.06744205 0.21038347 -0.035412505 0.16518904 -0.12387968
0.2755163 -0.18773703 -0.23669413 0.21030091 -0.17354804 -0.13923155 -0.012509702 -0.03341092
-0.13519755 -0.22694029 -0.067633785 -0.098146036 -0.14454092 0.25333923 -0.262024 -0.10821315
-0.10511432 -0.23833613 -0.0133576095 0.18968803 0.15855187 -0.03074801 0.12750758 -0.027296191
-0.13663895 0.019090008 -0.31395566 -0.06441837 0.03386595 -0.2857093 -0.17422949 -0.04342441
-0.1288946 0.20396371 0.0386896 -0.25013438 0.18911982 0.2522384 0.27206108 0.060938913
0.05771795 0.24135688 -0.20575109 -0.034594405 -0.02222684 0.1358754 0.13554059 0.11466319
-0.16622275 -0.16441508 0.0068221325 0.17630082 -0.16279572 -0.045184337 -0.19622508 -0.22966723
0.09533014 -0.05462812 0.15541378 0.30144867 -0.1365761 -0.20748493 -0.2540166 0.2320331
-0.140293 -0.27320728 -0.10046609 -0.02044097 0.061086196 0.109977484 -0.13879544 0.14591807
0.04621528 0.2832712 -0.08209473 0.15213674 0.115233675 0.1500736 -0.26519832 -0.2098894
0.20341052 0.001739423 0.008135718 -0.12500133 0.30703178 0.12664336 -0.29346043 0.2554007
0.114001244 -0.115261905 0.0045866026 -0.20978296 0.017875388 0.24412285 0.14616756 0.11013338
0.092695296 0.17071335 -0.047155846 0.2282803 -0.26652712 0.0019152906 0.045740236 -0.2940806
-0.23146327 -0.28518015 0.14022022 -0.20083617 0.12266128 0.13217011 -0.05995479 0.28575063
0.18744875 -0.22229637 0.14281093 -0.20220734 0.01956601 -0.14966905 0.17742975 -0.03183658
-0.17750725 0.08587143 0.18183123 -0.028709661 0.10304885 -0.050254185 -0.060542982 -0.08853335
0.12724414 -0.22003727 -0.13158022 0.25137743 -0.22380206 0.031473145 -0.2715196 -0.24470599
0.15084253 0.24654861 0.07749006 0.25242823 -0.0048288405 0.25334385 -0.1901888 -0.17111531
0.007341355 -0.25066513 -0.27863228 -0.17883742 -0.13462915 0.2578236 -0.08827302 0.1533237
-0.28124133 -0.12405491 -0.21395226 -0.058544796 -0.02860393 -0.1683318 -0.29453683 0.14896467
-0.16462243 -0.06587739 -0.0043443935 0.021900266 -0.19717468 0.23964165 -0.18704468 0.18949941
-0.17981042 -0.2501457 0.15393826 -0.07438627 0.08704295 0.1435909 0.060729057 0.14098066
-0.022516808 0.28921726 0.3231065 -0.22525471 0.006670609 0.32566103 -0.13507009 -0.14098297
-0.13266526 0.09512465 0.17192025 -0.13626266 -0.16709039 0.004322 0.14669764 0.001048733
0.019531364 0.17134424 -0.18936208 0.2188614 -0.064890325 0.24038678 0.22871457 0.29326817
0.031689398 -0.2615988 -0.25768197 -0.10539215 0.07054603 0.14836599 0.0067208107 -0.06558698
-0.1540875 -0.14663832 -0.12504174 0.27327105 -0.22580144 -0.0527175 0.093548246 0.23985307
0.22393638 0.29270405 0.2225391 -0.02702755 -0.19437757 0.029405598 0.006268682 -0.1398739
0.070544146 0.16259685 -0.1934127 0.0049247383 0.2251709 -0.23990558 0.18680838 0.070281535
-0.18734713 -0.13587724 0.027983045 0.27863345 -0.0015960695 -0.05559156 -0.1507378 -0.15250951

linear1.bias f4 [256]
00000000: 4539 2cbd 4e2f 223e 2925 0a3d 69c2 8c3e
00000010: a534 8dbd 95b4 84be 5cc6 133e 5e74 8abe
00000020: ee6e 65bd 25c2 353e 4ecf ddbd b3f2 8b3e
00000030: 7078 813d 3d04 ecbc c538 aebd 2584 3dbd
00000040: b546 af3d bd2d 0f3e d65d 11be ae43 453e
00000050: 22e6 d93d d01c 723e d434 3b3e c9ca 93bd
00000060: 674d 893d fed4 573e 521e 363e b4d2 6b3e
00000070: eeca 92bd c82d 2a3e 3e05 a0bd 84aa 92be
00000080: 32b7 7b3e 8000 90b9 2ee8 6d3e 7c28 343e
00000090: f0a9 44be 99cb 7ebe b80b 873e 6d24 0bbe
000000a0: 1d77 2fbe b64b 7ebe 536c 193e cef6 643e
000000b0: c06d 9dbd 424e 73be 7800 343e 2fd3 25be
000000c0: c0ff 0c3e 2727 ab3e f5b6 8abe f57c 95be
000000d0: 3fe7 563d 7908 0b3c e0fa e2bb d59a a53d
000000e0: 1160 adbd cb7d c63d bd37 e13d 7635 91bd
000000f0: 5aee a7bd dcd6 19be a60a 0d3e a43b 953e
00000100: 5118 243e 1778 933d 7418 51bd e301 abbd
00000110: 570c 6cbb 0718 aebe 872c 7b3e 802a 17be
00000120: 206c 88be 08fe 193e 4e8d f63d 9bec 813e
00000130: 8996 803e 72a8 033e b64f 60be 8b52 863e
00000140: 1a9f b13b 2585 313d 7699 89be c749 45be
00000150: 5027 09be c8b6 a2bd eaae 403e 5924 3f3e
00000160: ef07 0d3d d964 a4be 38ca 6b3e 5356 55be
00000170: 41f9 b1bd aa09 4d3e 85e7 8a3c a5e4 b6bd
00000180: f319 383e 0842 b93d 522b 343e b85c 193d
00000190: b2e5 05be 97e6 b93d 9f03 1c3e 8d96 863d
000001a0: cf98 593e ffe2 6c3e eea5 5ebe 7ca5 9e3e
000001b0: c6ae 8dbe 334e e03d 6431 6b3e e042 6a3e
000001c0: 257e 333e 6ac6 cd3d f802 713d 1875 483e
000001d0: 62c2 1a3e b79a f9bd 3713 69be 5cad 003c
000001e0: 2457 a03e d59d 67be 71f4 4d3d 9f06 87be
000001f0: 55bc 723e fb62 3d3e 46d3 a2bd f97d 913e
00000200: 5130 52be c2b1 343d 903d a9be ca09 76be
00000210: ac47 a13d b121 c6bd a742 95bc 0faf 013c
00000220: 219a 9fbd 6a70 c9bd 27d6 32be 9452 86be
00000230: 225f 633e 6eef 033e 3978 803e 3b03 bcbd
00000240: 16ce a13e e686 a63d 1b9e 5bbe 26f7 38be
00000250: 7fea 253d 5ea9 5b3d bce5 1839 3123 4d3d
00000260: 5c2a 03bd 705b aabe 10f0 463e b666 12be
00000270: 3243 473c 6b65 403e 475c e9bd c155 15bd
00000280: 79aa a4be ec55 8e3d 0455 4ebe d0f4 9f3c
00000290: 7411 6ebe 66d8 1ebe 31c0 603e 9cfc c2bd
000002a0: 79e1 983e bc7e 083e 4289 3c3e a4e0 5abc
000002b0: 6b34 823e 89dc 7e3e 0739 6c3e d67f 8cbe
000002c0: 2ea9 9fbd 9260 51be b124 86be 3c77 f83d
000002d0: 6fea 69be fb68 1a3e ce4f 953e 337f 3c3d
000002e0: 7826 343d e02e 993e 418f 6d3e 579a e4bd
000002f0: ad11 2e3d 05f7 2a3e 9e9d 903d 315c a93c
00000300: 03f3 3fbe 2082 47bd 0151 453e 4ec8 2a3e
00000310: 8d9f 643e 1457 963d 7f04 05be f012 7e3e
00000320: aee8 4b3e bd95 84be 94e5 4cbe 8561 5cbe
00000330: 6e38 61be d4c2 973d 590f 473e 56e9 883e
00000340: bc9e a23d ec04 303e 5d64 05bd dc9a 5dbe
00000350: 9f4d 823e 1aad 96bd 424b 903e e8b9 e0bd
00000360: ea08 40be 2ece 0f3e c6af efbc a64d 82be
00000370: 189f 613e c93b 64ba 6f49 973e ed9e abbc
00000380: 1738 983d aaa0 ed3d c63c e63d 3cdc 52bd
00000390: 10e0 093e b024 51be a418 943d 9763 1ebe
000003a0: eda3 cd3c bad2 943d 157b dcba 8551 623e
000003b0: e72e 9e3e c251 02be 8ca9 7fbd ef72 ecbd
000003c0: a464 6a3e 16d0 b93c fce0 2ebe 0d79 cebd
000003d0: 9f69 92be a229 8c3e 0e74 73be 4388 f43c
000003e0: ee24 91be 37ce 9b3e 7b65 73be 062f 5a3e
000003f0: dd27 763d 8f77 a23d d494 a53e 3f11 283e
-0.042046804 0.15838358 0.033726845 0.27492073 -0.06894807 -0.25919023 0.14431137 -0.27041906
-0.056013994 0.17749842 -0.10830556 0.27333602 0.063218 -0.028810615 -0.08506922 -0.0462686
0.08558408 0.13982292 -0.14195952 0.19264099 0.106395975 0.23643804 0.18281871 -0.072164126
0.067042165 0.21077344 0.17785004 0.23029596 -0.07167612 0.16619027 -0.078135 -0.28645718
0.24581602 -0.00027466193 0.23233101 0.17593569 -0.19205451 -0.24882354 0.26376128 -0.13588114
-0.17135282 -0.24833569 0.14982729 0.22359774 -0.07686949 -0.23760322 0.17578304 -0.16193841
0.13769436 0.33428308 -0.2709271 -0.29196897 0.052466627 0.008485907 -0.0069268793 0.080861725
-0.08465589 0.09691962 0.10996959 -0.07090275 -0.08199759 -0.15023369 0.13773593 0.29147065
0.16024901 0.0720064 -0.05104871 -0.08349969 -0.0036018097 -0.34002706 0.24528705 -0.14762306
-0.26644993 0.15038311 0.120386705 0.25375828 0.2511485 0.12857226 -0.21905407 0.2623485
0.0054205777 0.043339867 -0.26874894 -0.19266425 -0.13393903 -0.07945019 0.18816724 0.1866621
0.034431394 -0.3210819 0.23026359 -0.20833711 -0.086901195 0.20023218 0.0169561 -0.08930329
0.17978649 0.090457976 0.1759465 0.03744194 -0.13075903 0.09077185 0.15235756 0.06571684
0.21249698 0.23133467 -0.21742985 0.3098563 -0.27672404 0.10952415 0.2296806 0.22877073
0.17528589 0.1004761 0.05884072 0.19575918 0.15113214 -0.12187713 -0.22761236 0.007853832
0.31316483 -0.22618802 0.050281946 -0.2637224 0.23704655 0.1849479 -0.079504535 0.28416422
-0.20526244 0.044114836 -0.3305478 -0.24027172 0.078749985 -0.09674395 -0.018220259 0.007915272
-0.0779307 -0.098358944 -0.17464505 -0.26234877 0.22204259 0.12884304 0.25091723 -0.09180304
0.31602544 0.081311986 -0.21447031 -0.1806303 0.040506836 0.053628318 0.00014581432 0.05008239
-0.03202282 -0.33272886 0.19427514 -0.14296994 0.012162017 0.18788688 -0.11394554 -0.036458734
-0.3216131 0.06949982 -0.20149618 0.019525915 -0.23248845 -0.15512237 0.21948315 -0.09520838
0.29859522 0.13329595 0.18411735 -0.013359223 0.25430617 0.24888815 0.23068629 -0.2744128
-0.0779594 -0.20446995 -0.26199868 0.12132117 -0.22843336 0.1507911 0.2916245 0.046019744
0.043982 0.29918575 0.23199178 -0.111622505 0.042497326 0.16695793 0.07061313 0.020673843
-0.18745045 -0.04870808 0.19269182 0.16677973 0.22326489 0.073408276 -0.12989996 0.24811912
0.19912979 -0.2589549 -0.20009452 -0.21521576 -0.21994182 0.074102074 0.19439448 0.2674052
0.079404324 0.17189378 -0.032566417 -0.21641105 0.25449845 -0.07357235 0.28182417 -0.10972959
-0.187534 0.14043495 -0.02925862 -0.25449866 0.22033346 -0.00087064184 0.29548213 -0.020949805
0.07432573 0.1160291 0.1124206 -0.051479563 0.1346438 -0.20424151 0.07231262 -0.15467678
0.02510258 0.072667554 -0.0016821349 0.2210141 0.3089516 -0.127265 -0.062417552 -0.11545359
0.22889954 0.02268223 -0.17078012 -0.10081682 -0.28596207 0.27375513 -0.2377474 0.02985013
-0.28348488 0.30430767 -0.2376918 0.21307 0.06009661 0.0793296 0.3234011 0.16412829

linear2.weight f4 [3, 256]
00000000: b866 cabd 7cf2 2bbd 36da b9bc b804 40bc
00000010: 96a0 85bd 6558 233b db30 02bc a71d 0dbd
00000020: 738b d9bc 95da b9bc 7c48 61bc 5100 9dbb
00000030: c3aa b5bd 5896 c9bc e653 633c 02f6 e9bb
00000040: c10e 1abd 9674 43bd 52ca a83c 198e 76bd
00000050: 4cd4 12bd ee60 533c 1626 803b 415e 7cbd
00000060: cfcb 9ebc 6a11 c53c e551 ca3a e90a d03c
00000070: b6d8 4ebc 58b7 16bb 67dd a13c 7479 d13c
00000080: daa1 533c d62f 2ebd 9971 a6ba 5783 433d
00000090: 177b 81bc e8f7 103c ce2a 8abb b5cb 28bd
000000a0: 7f68 34bd 0637 bbbd 8134 5fba 3c46 98bd
000000b0: 31b8 eabc 63df 96bc 5c45 eabb aa35 9dbd
000000c0: ca3e b63a 4b5b abbd 57eb 69bd b492 88bd
000000d0: 1c38 05bb 20f2 04bd 3a5d 92bc dfeb 5ebd
000000e0: c0d4 c3bd e922 2cbd c348 cdbb adef 3f3d
000000f0: 9676 28bd 2c57 d03c c80e a4bd c722 a7bd
00000100: 8a17 93bd 96c3 21bb a99a c83c f844 65bd
00000110: 1c09 7fbc ede8 473d d77a 0fbd 004e 14bc
00000120: 0e83 173d a278 eebc ff09 66bd ff98 86bd
00000130: b315 68bd 2f9c 57bd 9d1f e73c 2a3c 82bd
00000140: 95a8 073d 694b d6bc e4f6 e5bc 8298 123b
00000150: 2e06 c43b fd8f 9c3c 480c 7ebd d3ab 67bc
00000160: 0db9 ab3c b493 28bb 74bf 19bd bdff 23bd
00000170: 823d 88bc 0dc2 743c 9f20 38bc b973 ca3c
00000180: 5473 a8bd 788e fabc f9fe fc3c 9214 fdbc
00000190: 4d00 023d 14f3 3b3c f232 94bd 6d6e cc3b
000001a0: d1a1 a1bd f2b1 98bd 9465 193d 64a5 4abd
000001b0: ce09 72bd 953a 323d 5675 9bbd 0e2e 4abd
000001c0: cd9b 8ebd 4150 2dbd a6ce 2f3c 424f d73c
000001d0: efc3 87bc 781c e3bc b887 09be 2d2c 45bd
000001e0: 8db9 993c aed1 99bc bce0 24bd 66eb d0bb
000001f0: 177b d9ba 68a9 28bd a86d 183d fe1f cb3c
00000200: 0ef0 3dbc ca62 0a3c 8834 9a3c 0012 4d3a
00000210: 67a1 c53b 299b b8bd 4d27 50bc c5c9 c8bc
00000220: cf75 27bd fb39 d5bb e76b 6e3b b0b4 68bd
00000230: 4742 a43b ff2c 573d e2cc d0bb 1bc2 b03c
00000240: 6c83 01bc fd40 2d3d d8d2 71bd 98e2 f5bb
00000250: 5660 c5bc 9953 e939 2105 fa3c 1fd9 86bd
00000260: 23f6 063d dd32 1b3d c48d 1cbd b5aa 56bc
00000270: 4310 21bd 2e36 88bd 9b58 3cbd f84e 333c
00000280: 4864 d23c e04f c3bc 43b6 a1bd 2d18 2c3d
00000290: 1baa 61bc c493 153d 3fa8 67bd d34b 5c3d
000002a0: a564 123c c23a 443d 18d9 99bd 7cee 9cbd
000002b0: c8ca 603b 99a7 edbc dbf0 acbd 1629 f93c
000002c0: 8844 fdbc df1e e33c e0fe dc3b 3984 4bbd
000002d0: c0af 3d3d d3d2 a93c 502d 8bbc 8a4c 6abc
000002e0: eab3 2c3c 281e 26bd ca42 e7bc 4c97 d33b
000002f0: fd3a 2b3d 3dae 443d fdfd 83bd bf18 a93c
00000300: 2522 473c 544b 1abd cb65 94bd 1ed5 30bd
00000310: b5ae 0abd 1175 74bc 651f 92bd 94cd fa3c
00000320: cf91 06bd d3ba aabd 2305 f43c 278f da3b
00000330: b8d5 1f3c 04a8 d7bc fd4b e2bc 81b2 7bbd
00000340: 3c5f 12bc af45 373c 80c7 3f3d e23d 8f3c
00000350: ceb1 b7bd 0b97 b2bd ccb2 51bd e5fd 943c
00000360: 5d5a f5bb 6bc6 79bc fdca 9bbd 66fa eebc
00000370: 5a4e 85bd 5573 9fbc 9383 a2bb e278 aa39
00000380: 2569 80bd 88ca e83c 42e2 96bd b055 413d
00000390: d7cd 85bd f0fe 4bbd 08fc dabc 268e 4abd
000003a0: 96f0 1a3c 9eb6 33bd aebd eebc 0f62 883c
000003b0: 638c 5bbc 0226 a73c 2702 4dbd 3dff 03bd
000003c0: d553 b1bc d231 acbc be8d 9ebd 8661 01bd
000003d0: 2e87 92bd 02ff ddbb 2810 603d 2efd acbd
000003e0: 42a8 e63c 1710 76bc 41ad 82bd 0ca8 a9bd
000003f0: 9a78 65bd 5ce4 c53c cbba 3bbd 4fa9 49bd
-0.09882873 -0.041979298 -0.022687059 -0.011719875 -0.0652477 0.0024924513 -0.007946218 -0.034452107
-0.026555752 -0.022687236 -0.013750192 -0.0047912975 -0.08870461 -0.024607822 0.013874983 -0.007139922
-0.037611727 -0.047718607 0.020604286 -0.06019411 -0.035846993 0.012901528 0.00391079 -0.061613325
-0.019384293 0.024056155 0.0015435783 0.025395827 -0.01262491 -0.0022997465 0.019758893 0.025570609
0.012917006 -0.04252609 -0.001269865 0.047732677 -0.015805764 0.008848168 -0.0042165285 -0.041209895
-0.044044968 -0.09141354 -0.00085145986 -0.07435271 -0.028652282 -0.018417066 -0.0071493816 -0.07676251
0.0013904211 -0.08367022 -0.057109203 -0.066686064 -0.0020327633 -0.03245747 -0.01786672 -0.054424163
-0.09562063 -0.04202548 -0.0062647774 0.046859432 -0.041128717 0.025432192 -0.08010632 -0.0816093
-0.07182224 -0.0024683229 0.02448781 -0.055973977 -0.015566137 0.04880612 -0.03502926 -0.0090518
0.036990218 -0.029110257 -0.056161877 -0.065721504 -0.05666132 -0.052639183 0.028213317 -0.06359132
0.033119757 -0.026159005 -0.028071828 0.0022368734 0.005982182 0.019111628 -0.06202343 -0.014140087
0.020962263 -0.0025722804 -0.0375361 -0.040038813 -0.016630892 0.014938843 -0.011238246 0.024713384
-0.08225122 -0.030585513 0.0308833 -0.030893598 0.031738568 0.011471529 -0.072362795 0.0062387497
-0.07892192 -0.074558154 0.037450388 -0.049474135 -0.05909138 0.0435129 -0.075907394 -0.049360327
-0.069633104 -0.042312864 0.010730421 0.02628291 -0.01657292 -0.027723536 -0.13430679 -0.048137832
0.018765235 -0.01877674 -0.040253386 -0.006375718 -0.001659247 -0.041177183 0.03721395 0.024795529
-0.011592878 0.008446405 0.018823877 0.00078228116 0.0060312035 -0.090139695 -0.012704683 -0.024510274
-0.040883835 -0.006507156 0.0036380233 -0.056812942 0.0050127837 0.052533146 -0.00637208 0.021576932
-0.007904869 0.042298306 -0.059038967 -0.0075038187 -0.024093788 0.00044503508 0.030520024 -0.06584381
0.032949578 0.037890304 -0.038221136 -0.013102223 -0.03932215 -0.06650959 -0.04598294 0.010944121
0.025682583 -0.023841798 -0.07896092 0.042015243 -0.013773466 0.036517873 -0.056556936 0.05378325
0.008935128 0.0479076 -0.075121105 -0.07662675 0.0034300555 -0.02901058 -0.08444377 0.0304151
-0.030916467 0.027724681 0.0067442507 -0.049686644 0.046310186 0.020730412 -0.01698938 -0.014300475
0.010540942 -0.040556103 -0.02823009 0.006457245 0.041804302 0.04801773 -0.06444929 0.020641683
0.012154137 -0.037669495 -0.07245978 -0.043171994 -0.03385802 -0.014920489 -0.07134894 0.030615605
-0.032853898 -0.08336415 0.029787606 0.006669897 0.009755544 -0.026325233 -0.027624125 -0.06144953
-0.008933838 0.011186047 0.046821117 0.017485563 -0.089694604 -0.087202154 -0.051195905 0.018187473
-0.007487579 -0.01524506 -0.07607076 -0.029172134 -0.06509085 -0.019464174 -0.0049595325 0.00032514991
-0.06270055 0.028416887 -0.07367374 0.04720086 -0.065334015 -0.049803674 -0.026731506 -0.04945197
0.009456774 -0.04387533 -0.02914318 0.01664832 -0.01340017 0.020403866 -0.05005088 -0.032225836
-0.02164642 -0.02101985 -0.07741879 -0.031587146 -0.0715469 -0.006774784 0.054702908 -0.08446728
0.028156403 -0.015018485 -0.06380702 -0.082840055 -0.056023218 0.024156742 -0.045832437 -0.04923373

linear2.bias f4 [3]
00000000: 13ce 8abd 7031 b33c b7bc 99bd
-0.06777587 0.02187416 -0.075066976
